models/lenet_rot10_crop_981.pth (torch_old, 263896 bytes, 10 tensors)

weight f4 [6, 1, 5, 5]
-0.19268799 -0.01181508 0.5283028 0.4325033 -0.114764765 0.17262566 0.16669637 0.3040879
0.8808304 0.42525807 0.18835737 0.15884633 0.40255907 0.85242605 0.57721424 -0.09624743
-0.2274783 -0.15265574 0.019752908 0.55921704 0.11091559 -0.21954897 -0.29524636 0.022630585
0.2694817 0.07902361 -0.2475588 -0.17722476 -0.16648905 0.13859229 -0.16573079 -0.28277943
-0.18131365 -0.224393 0.035433687 -0.18593585 -0.19512986 -0.20614445 -0.20369 0.011236463
-0.32413298 -0.20215963 -0.22861782 -0.18303564 -0.013685184 -0.20009227 -0.18704787 -0.31958202
0.004859895 -0.22903588 -0.05695587 -0.41082793 -0.28636137 0.2431444 0.13089196 -0.36287707
-0.431114 -0.5007633 0.45890424 0.708448 -0.32729405 -0.41522735 -0.023917075 0.6810613
0.5311679 -0.18529266 -0.0042460263 0.35268506 0.712504 0.050931513 0.26178554 0.18266024
0.51064545 -0.021422338 -0.12244301 0.03591151 0.0015866386 0.46172145 0.31767827 -0.30914035
-0.19116068 -0.124792196 0.25104254 0.55362934 0.31527105 -0.1691821 -0.50612795 -0.46344137
0.0031834142 -0.00858247 0.10981263 -0.35435528 -0.36709678 -0.11762194 -0.022478402 0.23969454
0.3014351 0.05303834 0.051996212 0.008700525 0.019082796 -0.038251024 -0.4687246 -0.3946222
-0.22685537 -0.21986215 -0.21150318 -0.084044114 -0.4491915 -0.15029198 -0.18734738 0.040900577
0.3383646 -0.13895585 -0.04711612 0.29371655 0.28075355 0.4863331 0.52172995 0.1727687
0.317342 -0.048361637 0.02299254 0.2928977 0.29006237 -0.12256099 0.09075952 -0.11363757
-0.05417893 -0.24557967 0.2698469 -0.2017892 -0.31779015 -0.11710561 -0.24785087 0.38373312
0.06306884 -0.04237159 0.2636039 0.39077896 0.060742352 0.51585215 0.0056880815 0.046901856
0.2515605 -0.08664689 0.3069823 -0.16189855 -0.13857439 0.30075198
00000000: 0050 45be 0a94 41bc da3e 073f 1371 dd3e
00000010: ca09 ebbd c8c4 303e 74b2 2a3e 69b1 9b3e
00000020: 1a7e 613f 6dbb d93e c1e0 403e 9da8 223e
00000030: 391c ce3e 9838 5a3f 50c4 133f 5f1d c5bd
00000040: 12f0 68be c951 1cbe dad0 a13c d928 0f3f
00000050: b627 e33d 72d1 60be 882a 97be c763 b93c
00000060: 81f9 893e 21d7 a13d 0e80 7dbe 687a 35be
00000070: 1b7c 2abe 23eb 0d3e 55b5 29be 77c8 90be
00000080: 49aa 39be 47c7 65be ea22 113d f865 3ebe
00000090: 1fd0 47be 8817 53be 1d94 50be 2419 383c
000000a0: c2f4 a5be ef02 4fbe ca1a 6abe b26d 3bbe
000000b0: d237 60bc fde4 4cbe 7a89 3fbe 41a0 a3be
000000c0: c13f 9f3b 6288 6abe 8f4a 69bd 0a58 d2be
000000d0: f59d 92be d8fa 783e 8b08 063e 06cb b9be
000000e0: f9ba dcbe 0632 00bf 7ff5 ea3e d95c 353f
000000f0: 1693 a7be ae98 d4be beed c3bc 095a 2e3f
00000100: 9ffa 073f 5cbd 3dbe 4022 8bbb 2393 b43e
00000110: aa66 363f 909d 503d c108 863e 490b 3b3e
00000120: a9b9 023f e67d afbc 67c3 fabd f317 133d
00000130: c2f6 cf3a c166 ec3e baa6 a23e a547 9ebe
00000140: a0bf 43be 0d93 ffbd a688 803e a7ba 0d3f
00000150: 356b a13e 133e 2dbe 9a91 01bf 3048 edbe
00000160: d4a0 503b 7d9d 0cbc 72e5 e03d 0e6e b5be
00000170: 1cf4 bbbe c6e3 f0bd a024 b8bc 7c72 753e
00000180: b455 9a3e bb3e 593d fbf9 543d a68c 0e3c
00000190: 8653 9c3c 1bad 1cbd acfc efbe ec0b cabe
000001a0: c64c 68be 8b23 61be 4a94 58be 521f acbd
000001b0: 6efc e5be 24e6 19be fed7 3fbe 5d87 273d
000001c0: 203e ad3e 714a 0ebe d5fc 40bd 0462 963e
000001d0: eebe 8f3e a700 f93e 1890 053f 47ea 303e
000001e0: a77a a23e da16 46bd da5a bc3c b0f6 953e
000001f0: 0e83 943e 4201 fbbd 21e0 b93d d0ba e8bd
00000200: baea 5dbd 3d79 7bbe 5f29 8a3e d4a1 4ebe
00000210: 64b5 a2be 11d5 efbd 9ecc 7dbe ab78 c43e
00000220: 3c2a 813d d58d 2dbd 17f7 863e 2e14 c83e
00000230: f9cc 783d e30e 043f 1663 ba3b 291c 403d
00000240: 8acc 803e ed73 b1bd c92c 9d3e bcc8 25be
00000250: 72e6 0dbe 2afc 993e

bias f4 [6]
0.6638875 0.1741278 0.90565264 0.076689005 0.1954849 0.22782885
00000000: 88f4 293f 8f4e 323e dad8 673f 200f 9d3d
00000010: 322d 483e f74b 693e

weight f4 [16, 6, 5, 5]
-0.07827481 -0.16535786 -0.10555951 0.010737555 -0.09890158 -0.013927613 -0.040550016 -0.061813485
-0.049399838 -0.029104503 0.0062337727 0.004972995 -0.059396494 0.10783815 -0.013515249 -0.002966516
0.036277376 0.04235338 0.068695456 -0.050833136 0.0071817995 -0.043555986 0.11826363 -0.0029016966
0.024497364 0.069037706 0.093605615 -0.044321403 0.016070578 0.021123523 -0.06619944 -0.075134985
-0.1277081 -0.07438577 -0.02462656 -0.017985998 0.029735884 -0.046954952 -0.12036488 -0.12149479
0.015285551 0.03528307 -0.13711327 -0.1537554 0.01981555 0.030018203 -0.050045867 -0.045696493
-0.06410984 -0.083489336 -0.03095035 0.026477827 0.09872898 -0.028158352 -0.035880618 0.062396314
0.019809118 -0.085952885 -0.054094113 0.06925236 0.07203368 -0.085901596 -0.027897792 -0.12920448
-0.13050167 -0.041683294 -0.09617838 -0.067472234 -0.0933013 -0.112848945 -0.129377 -0.09594776
-0.11656246 -0.05360846 0.044326723 0.024750102 0.08216889 0.032036975 0.061869282 0.1629738
-0.020994399 0.1270017 0.10276184 0.20660569 0.07361433 0.16414522 0.110814214 0.13639775
0.16494407 0.2195747 0.05649848 0.18487479 0.16256738 0.2046874 0.09094829 0.1295669
0.07735142 0.20223026 0.2641849 0.18509574 0.20484217 0.17335276 0.20477517 0.14481585
0.03317859 0.12864003 0.1169656 0.03289162 0.010307337 0.06845366 0.12938108 0.0300512
0.03350463 0.00421508 0.068150334 0.13242647 0.052278373 0.056533106 0.1365144 0.08414842
0.07462351 0.11497481 0.06500309 0.049256776 0.04522074 0.09428447 0.06627318 0.019045828
0.075396694 0.06396307 0.10844345 0.09260774 0.094876 0.08675721 0.09352313 0.014544812
0.12118127 0.20901439 0.14737155 0.09847177 0.054846566 0.116488494 0.1545716 0.14637338
0.009444624 0.077698104 0.028848084 0.045285888 0.050640997 -0.044115294 0.052727062 -0.023480449
-0.094733335 -0.019514233 -0.12996888 0.07722773 -0.058819886 -0.09072919 -0.10104624 -0.17051966
0.16617475 -0.049629476 -0.17470643 -0.095213875 0.0021793246 0.18923289 -0.03627212 -0.029966962
0.0067888484 0.019109735 0.26665217 0.13290145 0.06824848 0.0814044 0.075793885 0.03660844
-0.04291491 0.011959236 -0.05553307 -0.017403716 -0.070705675 0.026116312 0.07204769 0.10002904
-0.013792475 -0.0702198 0.0017423361 0.040959127 0.022565074 -0.0017064104 -0.008113548 -0.07118791
0.04124565 0.030144759 0.016332533 -0.055458933 0.016046261 -0.027082164 -0.06929041 -0.09501802
0.02278549 0.007764061 -0.07661652 -0.035722528 -0.11901134 -0.028050387 -0.07985107 -0.07166075
-0.13456927 -0.10019826 0.044255942 -0.06797399 -0.18274584 -0.13253757 -0.09131162 0.03587355
-0.060996365 -0.07570437 0.027907314 0.0694955 0.11909892 0.0133063635 -0.17627311 -0.040610563
-0.011076207 0.07386007 0.019763352 -0.041997604 -0.05673727 -0.06570483 -0.0029900605 0.08564527
0.005342509 -0.061618026 -0.008910577 0.062362585 0.1047649 0.017263006 -0.021196058 -0.029305814
0.14994694 0.058390457 -0.103500605 0.03302771 -0.087971546 0.14513052 0.124303214 -0.094671346
0.0026792428 -0.059266202 -0.0067436965 -0.058357604 -0.08568313 0.014271148 -0.015405019 -0.086010315
00000000: 8b4e a0bd 9253 29be 962f d8bd 92ec 2f3c
00000010: e98c cabd a530 64bc c617 26bd 2330 7dbd
00000020: 7c57 4abd 916c eebc ad44 cc3b 81f4 a23b
00000030: bd49 73bd 3fda dc3d 106f 5dbc e169 42bb
00000040: 9697 143d bd7a 2d3d 34b0 8c3d 6836 50bd
00000050: 4d55 eb3b c367 32bd 3434 f23d 642a 3ebb
00000060: b2ae c83c a463 8d3d 4db4 bf3d 5c8a 35bd
00000070: 72a6 833c 3d0b ad3c 9293 87bd 5fe0 99bd
00000080: eac5 02be 9157 98bd a4bd c9bc 5f57 93bc
00000090: ab98 f33c d653 40bd dd81 f6bd 43d2 f8bd
000000a0: 3f70 7a3c fb84 103d 6c67 0cbe 0e72 1dbe
000000b0: 3854 a23c bce8 f53c e5fc 4cbd 3f2c 3bbd
000000c0: 054c 83bd 75fc aabd 978b fdbc 07e8 d83c
000000d0: 6b32 ca3d 58ac e6bc 8ef7 12bd 4793 7f3d
000000e0: bb46 a23c 1108 b0bd ca91 5dbd 2ed4 8d3d
000000f0: 6586 933d 2ded afbd e989 e4bc 2e4e 04be
00000100: 3ba2 05be 1abc 2abd 2cf9 c4bd e22e 8abd
00000110: c114 bfbd 591d e7bd 677b 04be 4280 c4bd
00000120: 4db8 eebd 8b94 5bbd f08f 353d bac0 ca3c
00000130: 2a48 a83d 3439 033d a56a 7d3d 9be2 263e
00000140: 72fc abbc bc0c 023e cd74 d23d 7190 533e
00000150: 1cc3 963d af15 283e 90f2 e23d daab 0b3e
00000160: 19e7 283e 31d8 603e f36a 673d d14f 3d3e
00000170: 1078 263e 9399 513e 1943 ba3d 2fad 043e
00000180: 6c6a 9e3d 7315 4f3e 3e43 873e bd89 3d3e
00000190: 25c2 513e 6383 313e 95b0 513e 9b4a 143e
000001a0: 46e6 073d 36ba 033e a98b ef3d 5db9 063d
000001b0: 1be0 283c 6f31 8c3d 797c 043e ef2d f63c
000001c0: 273c 093d a71e 8a3b 6792 8b3d ce9a 073e
000001d0: d921 563d 428f 673d 6eca 0b3e 0256 ac3d
000001e0: 36d4 983d ea77 eb3d 5720 853d 79c1 493d
000001f0: 6239 393d 3718 c13d 3cba 873d ff05 9c3c
00000200: 9569 9a3d 12ff 823d 9917 de3d 20a9 bd3d
00000210: 594e c23d c4ad b13d 0e89 bf3d 5d4d 6e3c
00000220: e32d f83d de07 563e 91e8 163e 91ab c93d
00000230: cba6 603d 8591 ee3d 0448 1e3e e7e2 153e
00000240: a0bd 1a3c 2f20 9f3d d152 ec3c b27d 393d
00000250: ef6c 4f3d 3db2 34bd 55f8 573d 125a c0bc
00000260: 8d03 c2bd 50dc 9fbc 9016 05be 9229 9e3d
00000270: 1fed 70bd 3ad0 b9bd 55f1 cebd b59c 2ebe
00000280: b729 2a3e 4748 4bbd 3ee6 32be 7eff c2bd
00000290: 00d3 0e3b 44c6 413e 1392 14bd 467d f5bc
000002a0: fd74 de3b 058c 9c3c a286 883e 5117 083e
000002b0: dcc5 8b3d 5ab7 a63d d339 9b3d bbf2 153d
000002c0: 8bc7 2fbd acf0 433c a576 63bd 3d92 8ebc
000002d0: 23ce 90bd e0f1 d53c bd8d 933d 06dc cc3d
000002e0: d5f9 61bc 66cf 8fbd 195f e43a c2c4 273d
000002f0: 64da b83c a2a9 dfba b0ee 04bc f8ca 91bd
00000300: 33f1 283d 24f2 f63c cecb 853c e828 63bd
00000310: 7373 833c 6adb ddbc 21e8 8dbd cf98 c2bd
00000320: a3a8 ba3c aa69 fe3b 1fe9 9cbd c951 12bd
00000330: 38bc f3bd edc9 e5bc f588 a3bd dfc2 92bd
00000340: 87cc 09be bf34 cdbd b845 353d f335 8bbd
00000350: ba21 3bbe eeb7 07be 9601 bbbd 25f0 123d
00000360: 53d7 79bd e50a 9bbd e19d e43c a853 8e3d
00000370: 22ea f33d ef02 5a3c f080 34be 4357 26bd
00000380: fb78 35bc f343 973d c1e6 a13c ae05 2cbd
00000390: 5765 68bd 4190 86bd e4f4 43bb ca66 af3d
000003a0: 3710 af3b 2f63 7cbd abfd 11bc e96f 7f3d
000003b0: fb8e d63d 266b 8d3c 5ba3 adbc bf12 f0bc
000003c0: b18b 193e d52a 6f3d 20f8 d3bd 1048 073d
000003d0: 6d2a b4bd 189d 143e af92 fe3d 0de3 c1bd
000003e0: 3c96 2f3b 1ec1 72bd 3afa dcbb 6208 6fbd
000003f0: a37a afbd 88d1 693c 5565 7cbc 2d26 b0bd

bias f4 [16]
0.021444622 0.0048954464 -0.0022126983 0.044845466 -0.023393543 0.029321235 0.06395461 -0.057836305
0.0024563158 0.107550524 -0.046364766 0.00030221176 0.022113409 -0.024280202 0.046264652 -0.04446155
00000000: a2ac af3c fb69 a03b eb02 11bb e1af 373d
00000010: d1a3 bfbc 1633 f03c a2fa 823d c3e5 6cbd
00000020: 24fa 203b 7343 dc3d fbe8 3dbd 2d72 9e39
00000030: 2e27 b53c 46e7 c6bc 0180 3d3d 501d 36bd

weight f4 [120, 400]
0.041747518 -0.021735385 -0.07533975 -0.021721402 -0.039757304 -0.04792147 -0.05935323 -0.082694486
-0.044029653 -0.00078090304 -0.04212061 0.03366488 -0.0032624083 -0.04031956 -0.009474363 -0.03680789
0.044531297 -0.016174821 0.007641895 0.047257043 -0.016028374 0.061780468 0.026230691 0.021555396
0.051199883 0.06493543 0.07003525 0.051770914 -0.026856031 -0.026778689 0.035839215 0.05265952
0.06440565 -0.078209125 -0.07566656 -0.03559507 0.040617105 0.012314858 -0.004802427 -0.019808587
-0.09762813 0.020951476 0.022460217 0.03360491 -0.019311134 -0.037147004 0.0063746274 0.013469391
0.09892245 -0.017185045 -0.00888144 -0.0334805 -0.02311238 0.016417561 0.008098225 0.029202208
0.013108573 -0.06424336 -0.024420632 -0.039539777 0.031151295 0.12778862 -0.045178358 0.012758339
-0.016689936 0.08986827 0.09310304 0.014905287 -0.020319708 -0.0339537 0.009287607 -0.046070203
0.049725085 -0.042444892 0.0018132555 0.07708145 0.038309697 0.068099946 -0.031275928 -0.026864646
-0.017127277 -0.0035889202 0.09127411 0.01622431 -0.03440133 -0.037936904 0.013193848 0.023108415
0.018070633 0.04609213 -0.083405085 0.020717792 0.025288211 0.0028988153 0.0238995 -0.048139513
0.053795066 0.061427727 -0.0054320884 0.03237203 -0.00838945 -0.017107269 -0.014901567 0.022809278
-0.04155463 -0.02910192 0.007940527 0.05591422 0.046518248 0.08430409 0.02861743 0.031149643
0.04870477 0.018905092 -0.014055683 0.03215405 0.0053691035 0.0073884525 0.042752564 0.042728595
0.025212022 -0.02010724 -0.09280551 -0.0145875765 0.032016724 0.0641197 0.07788097 0.101185784
0.04568132 -0.00088497315 0.0025829219 0.05622064 -0.007947904 -0.027231203 -0.008477138 0.0067651644
0.020129755 0.04814887 -0.05088764 0.033506617 0.04714763 0.024472602 -0.04583682 -0.042519398
-0.008294944 0.025996467 -0.018740438 -0.02295193 0.06748042 0.024216551 -0.029287206 -0.068528585
-0.0046901195 0.05490562 -0.013539938 0.00899667 -0.04282508 -0.0606312 -0.0461392 0.00088773214
-0.03375011 0.030418146 -0.14319244 0.0034337512 0.021033885 0.019713558 -0.0421982 -0.10248593
0.010906569 0.12601689 -0.012853546 -0.03052349 -0.0018034962 0.05174892 0.043471564 0.020502264
0.059775025 0.011797392 0.008533496 -0.01326195 0.03059678 0.059630685 0.062315416 0.050397296
0.058071222 -0.0057941694 0.083829395 0.011716667 0.015171367 -0.059667893 0.029227449 0.046947643
0.0051605464 0.053383514 0.0026790895 0.035392545 -0.054202832 -0.12190931 -0.025644818 -0.02401549
0.017208042 0.024481887 -0.0103346165 -0.021680787 -0.036679417 0.033183828 0.043513726 0.06383122
-0.026560733 0.05116934 -0.0016898402 -0.00090007123 0.068401285 -0.008684812 -0.007111189 -0.03397011
-0.0085607795 0.025882052 0.006914571 -0.023833314 -0.042933974 -0.003302356 0.011348044 -0.02637844
-0.021517714 -0.044414833 0.037236527 0.082446195 -0.04412253 0.0015728071 -0.11093892 -0.015328913
0.036091756 0.049156956 -0.05159675 -0.1371084 -0.00021971652 0.054486014 -0.01018387 -0.023407677
0.040058315 0.03894621 -0.0320819 -0.03223957 0.006442922 0.10928073 0.09584442 0.002938006
-0.0040940423 -0.042275652 0.004130545 -0.007180838 0.045330524 -0.03716463 0.0224831 -0.035440054
00000000: 72ff 2a3d 680e b2bc ba4b 9abd 15f1 b1bc
00000010: 8ed8 22bd 4e49 44bd 5f1c 73bd ba5b a9bd
00000020: 7058 34bd 84b5 4cba a986 2cbd 2fe4 093d
00000030: 21ce 55bb 1f26 25bd 5c3a 1bbc dfc3 16bd
00000040: 7366 363d 0f81 84bc dd68 fa3b 9a90 413d
00000050: f04d 83bc 840d 7d3d bfe1 d63c f194 b03c
00000060: f8b6 513d defc 843d a46e 8f3d bd0d 543d
00000070: 2e01 dcbc fb5e dbbc 24cc 123d 82b1 573d
00000080: 1ce7 833d 1b2c a0bd 12f7 9abd 23cc 11bd
00000090: 1f5e 263d 42c4 493c ad5d 9dbb 9e45 a2bc
000000a0: 42f1 c7bd 6ea2 ab3c 7dfe b73c 4da5 093d
000000b0: 6232 9ebc 7527 18bd 40e2 d03b b8ae 5c3c
000000c0: da97 ca3d a7c7 8cbc 7683 11bc d922 09bd
000000d0: 2d56 bdbc 1f7e 863c 6bae 043c 7839 ef3c
000000e0: 57c5 563c 0692 83bd c70d c8bc 76f4 21bd
000000f0: 0031 ff3c 05db 023e f10c 39bd 5a08 513c
00000100: 55b9 88bc db0c b83d ceac be3d 4e35 743c
00000110: 8475 a6bc 0913 0bbd 0c2b 183c 1cb4 3cbd
00000120: 88ac 4b3d b2da 2dbd c2aa ed3a e1dc 9d3d
00000130: a1ea 1c3d fc77 8b3d 301b 00bd 3f13 dcbc
00000140: 814e 8cbc 1734 6bbb eced ba3d d8e8 843c
00000150: 69e8 0cbd ba63 1bbd 022b 583c dc4d bd3c
00000160: dd08 943c 1acb 3c3d 49d0 aabd 5cb8 a93c
00000170: 3929 cf3c 0dfa 3d3b e2c8 c33c f02d 45bd
00000180: 3758 5c3d a49b 7b3d a9ff b1bb 8998 043d
00000190: e773 09bc 8b24 8cbc b425 74bc 86da ba3c
000001a0: 3035 2abd 2667 eebc fc18 023c 4f06 653d
000001b0: eb89 3e3d 9fa7 ac3d 1a6f ea3c 892d ff3c
000001c0: a77e 473d dade 9a3c cf49 66bc f7b3 033d
000001d0: 4eef af3b d51a f23b 501d 2f3d 2e04 2f3d
000001e0: 7189 ce3c f0b7 a4bc d110 bebd bb00 6fbc
000001f0: f823 033d 3051 833d 0f80 9f3d 7e3a cf3d
00000200: 561c 3b3d 8bfd 67ba 3d46 293b 9d47 663d
00000210: ed37 02bc f913 dfbc b2e3 0abc 50ae dd3b
00000220: 28e7 a43c c037 453d 8f6f 50bd 3c3e 093d
00000230: e01d 413d c47a c83c 64bf 3bbd d228 2ebd
00000240: 84e7 07bc 8bf6 d43c 8c85 99bc b005 bcbc
00000250: 2d33 8a3d ca61 c63c b9eb efbc b758 8cbd
00000260: 93af 99bb b7e4 603d 9ed6 5dbc c566 133c
00000270: 5a69 2fbd 6c58 78bd 75fc 3cbd b2b6 683a
00000280: 8e3d 0abd 7a2f f93c 0aa1 12be c908 613b
00000290: 414f ac3c 547e a13c 05d8 2cbd 25e4 d1bd
000002a0: 77b1 323c 920a 013e ae97 52bc 660c fabc
000002b0: 4a63 ecba adf6 533d 3d0f 323d 5df4 a73c
000002c0: a8d6 743d d949 413c 14d0 0b3c a648 59bc
000002d0: 19a6 fa3c 4e3f 743d 733e 7f3d 656d 4e3d
000002e0: 17dc 6d3d 04dd bdbb bfae ab3d 43f7 3f3c
000002f0: 5391 783c 5266 74bd 676e ef3c 2c4c 403d
00000300: cd19 a93b aca8 5a3d aa93 2f3b c6f7 103d
00000310: ca03 5ebd 97ab f9bd 1515 d2bc 22bc c4bc
00000320: e1f7 8c3c 3d8e c83c 8652 29bc e89b b1bc
00000330: 283d 16bd c4eb 073d 733b 323d f1b9 823d
00000340: e595 d9bc f196 513d a17d ddba c2f2 6bba
00000350: f915 8c3d be4a 0ebc fa04 e9bb 3e24 0bbd
00000360: 8342 0cbc 9906 d43c a093 e23b 153e c3bc
00000370: 89db 2fbd 576c 58bb 25ed 393c 9917 d8bc
00000380: eb45 b0bc 54ec 35bd 5485 183d 8dd9 a83d
00000390: d3b9 34bd a626 ce3a f233 e3bd 1f26 7bbc
000003a0: f3d4 133d ce58 493d 1d57 53bd 2566 0cbe
000003b0: b463 66b9 ba2c 5f3d 3fda 26bc 75c1 bfbc
000003c0: 3014 243d 1086 1f3d 4f68 03bd a40d 04bd
000003d0: 261f d33b 93ce df3d 144a c43d 908b 403b
000003e0: 5127 86bb 3c29 2dbd 8659 873b 3c4d ebbb
000003f0: 80ac 393d f039 18bd 7a2e b83c 9729 11bd

bias f4 [120]
0.018145554 0.023071352 -0.039466787 -0.016654328 0.008005918 0.055179507 0.027264113 -0.01062104
0.006426015 0.015960034 0.0046659093 0.0239796 -0.05033587 0.025045918 -0.0016604221 0.032603893
0.03343632 0.011878117 0.021201773 -0.045249403 -0.0029393407 -0.03358044 -0.03620231 0.056841932
0.03060797 0.036795817 0.016394574 0.04292159 0.01627561 -0.002290852 -0.04001474 0.026140504
0.040786043 -0.01620011 0.010902782 0.02052721 0.018247966 -0.010698366 0.012021569 -0.037720878
-0.04022197 0.043213006 0.015130106 -0.041301146 0.051939115 -0.046380263 -0.035768524 0.058060948
-0.0067781154 0.0065303883 -0.034246787 -0.04598139 0.007365296 -0.0023502868 -0.02871468 -0.0016655781
-0.020914705 -0.016063936 -0.006906699 0.01809813 -0.009034238 0.0217807 0.010560508 -0.008489889
-0.02129219 -0.0029033662 -0.008341083 0.04076175 -0.020761946 0.004792808 -0.029254483 -0.011590528
-0.022123644 -0.048154023 -0.02686999 0.05144112 0.03238479 0.00479958 0.015966088 -0.014227729
0.042217106 0.028825793 0.010216248 0.012211061 -0.04467564 0.0064113657 0.040417667 -0.035605457
0.020239597 -0.0053814496 -0.019233307 -0.02983812 -0.004995455 0.04240489 -0.025708238 0.0072503327
0.013872439 -0.040264625 -0.002471272 -0.029986562 -0.030686889 -0.027003597 0.022281477 -0.04921487
0.06044823 -0.027019495 0.02839855 -0.04961572 -0.015338338 0.009668793 -0.00028468648 0.03306897
-0.021160364 -0.025081562 0.04584036 -0.029775647 0.022466222 0.013547075 -0.015236933 0.018689767
00000000: fca5 943c 2200 bd3c eda7 21bd a86e 88bc
00000010: 412b 033c e803 623d fd58 df3c df03 2ebc
00000020: 5291 d23b 9ebe 823c 7ce4 983b de70 c43c
00000030: fc2c 4ebd 192d cd3c 85a2 d9ba a98b 053d
00000040: 86f4 083d 6f9c 423c 57af ad3c 7057 39bd
00000050: f4a1 40bb a58b 09bd e048 14bd 16d3 683d
00000060: 91bd fa3c 36b7 163d ea4d 863c 8dce 2f3d
00000070: 6e54 853c 1e22 16bb 7fe6 23bd 9c24 d63c
00000080: 440f 273d 18b6 84bc 95a1 323c ae28 a83c
00000090: c27c 953c 3348 2fbc 1df6 443c 3581 1abd
000000a0: cbbf 24bd 1f00 313d 44e4 773c 642b 29bd
000000b0: 1cbe 543d 3bf9 3dbd 0482 12bd 51d1 6d3d
000000c0: f41a debb defc d53b 5c46 0cbd fb56 3cbd
000000d0: 9558 f13b 4507 1abb 0c3b ebbc 874f daba
000000e0: 5155 abbc 8498 83bc 9751 e2bb 8842 943c
000000f0: 5704 14bc 706d b23c fb05 2d3c 2d19 0bbc
00000100: f56c aebc 6746 3ebb 0aa9 08bc cbf5 263d
00000110: f514 aabc fd0c 9d3b 19a7 efbc 33e6 3dbc
00000120: a53c b5bc 273d 45bd 741e dcbc edb3 523d
00000130: eaa5 043d cc45 9d3b 50cb 823c 6c1b 69bc
00000140: d8eb 2c3d 1224 ec3c 0d62 273c e710 483c
00000150: cefd 36bd 6f16 d23b ff8c 253d 07d7 11bd
00000160: 83cd a53c df56 b0bb 2b8f 9dbc 136f f4bc
00000170: eab0 a3bb c0b0 2d3d 159a d2bc 3394 ed3b
00000180: 3a49 633c 85ec 24bd 10f5 21bb 61a6 f5bc
00000190: 1263 fbbc a636 ddbc a587 b63c 8895 49bd
000001a0: 9098 773d fd57 ddbc 13a4 e83c da39 4bbd
000001b0: a74d 7bbc db69 1e3c f941 95b9 5473 073d
000001c0: 8058 adbc d977 cdbc 1ac3 3b3d 0fec f3bc
000001d0: 150b b83c 8df4 5d3c 54a4 79bc 481b 993c

weight f4 [84, 120]
-0.07736496 0.040584262 -0.06948907 0.06270461 -0.058210712 0.03529305 -0.051195886 -0.0030004773
-0.08860522 0.05784351 -0.075916596 0.019920712 0.057069734 -0.053850524 0.049037438 -0.068493165
0.009131079 -0.08013123 0.083936505 -0.035442416 -0.034087714 0.016706795 -0.031593937 0.010735771
0.05497971 0.06030478 0.025876112 -0.030774236 -0.05796875 0.07438558 -0.08708101 0.041512646
-0.09484957 0.068428494 -0.084419 0.0055895643 0.054500937 0.05753684 0.024828682 -0.046122793
-0.02796781 -0.013830951 -0.0015387281 0.021906305 0.009922422 0.039938573 -0.017572671 -0.03727368
0.04003877 -0.044894543 0.029704258 -0.09751636 -0.006366248 0.00016683435 0.042958368 -0.0060381764
-0.00043162136 0.008752701 -0.052887354 -0.0053898725 -0.0264341 -0.06608973 0.011446174 0.080611594
0.015343772 -0.059413094 0.0058324854 -0.082278825 -0.03628886 -0.055527046 0.033388738 -0.071467295
0.08017686 -0.015192552 -0.07242448 0.094659895 -0.024842786 -0.02884071 -0.08231739 0.06539619
-0.059896305 -0.013187676 -0.047773466 0.039870355 -0.047710136 -0.010372401 0.09172361 -0.012342329
-0.011585525 0.08277329 -0.055391982 -0.07290267 0.083631165 0.038168218 -0.017555898 -0.082724795
-0.06330319 0.08009043 -0.054972637 -0.022244662 -0.012049432 -0.10207939 0.010914097 -0.08169083
-0.048096955 -0.01428271 0.050608646 -0.08892076 0.07478246 0.08226544 -0.0563315 0.06300518
0.08874436 -0.08572771 0.0347403 0.001157706 0.013999666 0.0017903524 -0.013541965 0.067898594
-0.045762144 0.044382334 0.02563656 0.040837202 0.09144344 0.078135304 -0.06362125 -0.04815915
-0.094152905 -0.095171876 0.021786442 -0.03078995 -0.046043467 0.03801681 -0.00082906074 0.034063376
0.01976282 0.115368515 0.083091125 -0.11610458 -0.12290486 -0.04546175 0.08820949 0.08527819
0.07246295 0.15355778 0.08703962 0.055773076 0.09349371 0.14258182 -0.073261596 0.11860708
-0.108034536 0.0375161 -0.040728483 -0.06921285 -0.018847665 -0.08805865 0.08813481 -0.06237309
0.07654196 -0.04296637 0.06284878 -0.071944855 -0.022186873 0.01973409 0.07437031 0.0985042
-0.07189693 -0.029205475 0.11572048 0.033625342 -0.07991527 0.066059895 -0.00289889 0.025251606
0.055472057 -0.02539561 0.050176878 -0.0053553293 0.050358407 -0.0727332 0.02614015 0.03422937
-0.0103380615 0.11328153 -0.020957794 -0.022388019 -0.010049362 0.020606497 0.0014669917 -0.025115421
0.074949004 -0.034079082 0.0466319 0.016762158 -0.022867924 0.01329441 0.15386033 0.068028525
0.084463105 -0.08086399 -0.04070129 -0.047005884 0.08559692 0.11915775 0.11795398 0.105945885
-0.07432756 -0.053609416 -0.042395588 -0.06745197 -0.02571933 -0.14238244 0.14633538 -0.049992077
-0.0550945 -0.06019791 -0.034751553 -0.0031627615 -0.035821125 0.08891619 0.17339799 -0.08059765
-0.12713508 0.10427493 0.09769553 0.032061934 0.033636298 0.13483928 0.08056859 -0.05513188
-0.022521477 0.07662594 -0.0037291597 0.082198136 0.0057854666 0.027924867 -0.044696994 -0.00053185964
-0.0009992212 -0.081442975 -0.076444745 0.051416863 0.0068752053 0.09057138 0.027439851 0.031980097
-0.016460584 -0.097730555 -0.06471005 -0.057743628 0.015250928 0.05477487 0.031811662 0.062062208
00000000: 8571 9ebd af3b 263d 4950 8ebd 466b 803d
00000010: 5b6e 6ebd 728f 103d c7b2 51bd a8a3 44bb
00000020: a776 b5bd 51ed 6c3d 297a 9bbd c330 a33c
00000030: f4c1 693d 5e92 5cbd 7bdb 483d 2546 8cbd
00000040: 859a 153c d81b a4bd e7e6 ab3d 112c 11bd
00000050: 8f9f 0bbd b0dc 883c a568 01bd 16e5 2f3c
00000060: 6832 613d 2502 773d 24fa d33c 401a fcbc
00000070: a470 6dbd 7857 983d 8757 b2bd 2a09 2a3d
00000080: 7e40 c2bd 3d24 8c3d dee3 acbd aa28 b73b
00000090: 603c 5f3d c0ab 6b3d 8565 cb3c 41eb 3cbd
000000a0: c01c e5bc 379b 62bc 26af c9ba da74 b33c
000000b0: a791 223c a196 233d 90f4 8fbc 49ac 18bd
000000c0: b1ff 233d 57e3 37bd 5856 f33c a8b6 c7bd
000000d0: f59b d0bb 41f0 2e39 1df5 2f3d e5db c5bb
000000e0: 3d4b e2b9 7d67 0f3c 69a0 58bd 879d b0bb
000000f0: 538c d8bc 0d5a 87bd bc88 3b3c b117 a53d
00000100: 7264 7b3c 255b 73bd 6f1e bf3b cd81 a8bd
00000110: a1a3 14bd 5470 63bd a1c2 083d 725d 92bd
00000120: c433 a43d 2eea 78bc 4953 94bd 0cdd c13d
00000130: 1983 cbbc 5a43 ecbc 0596 a8bd 70ee 853d
00000140: d455 75bd 1f11 58bc 1cae 43bd 194f 233d
00000150: b46b 43bd 01f1 29bc 97d9 bb3d 7b37 4abc
00000160: 37d1 3dbc 0b85 a93d b4e2 62bd ff4d 95bd
00000170: d146 ab3d 4756 1c3d 63d1 8fbc 9e6b a9bd
00000180: 1aa5 81bd 7406 a43d fd2a 61bd 703a b6bc
00000190: fb6a 45bc 000f d1bd 0ad1 323c 864d a7bd
000001a0: 5001 45bd 0702 6abc 034b 4f3d 161c b6bd
000001b0: 8c27 993d c87a a83d dcbb 66bd dc08 813d
000001c0: 9abf b53d 0292 afbd d84b 0e3d 2bbe 973a
000001d0: db5e 653c 42aa ea3a 1edf 5dbc 6b0e 8b3d
000001e0: 1671 3bbd 40ca 353d c303 d23c e944 273d
000001f0: b346 bb3d 6705 a03d dc4b 82bd 8742 45bd
00000200: 3dd3 c0bd 79e9 c2bd 7b79 b23c 353b fcbc
00000210: 1398 3cbd 84b7 1b3d 5355 59ba 0a86 0b3d
00000220: a3e5 a13c 5446 ec3d ae2b aa3d 3dc8 edbd
00000230: 8bb5 fbbd 1a36 3abd 2da7 b43d 55a6 ae3d
00000240: 7567 943d 403e 1d3e d441 b23d 4f72 643d
00000250: a179 bf3d f800 123e 2d0a 96bd 45e8 f23d
00000260: 3641 ddbd 7baa 193d e9d2 26bd 77bf 8dbd
00000270: 6b66 9abc 1858 b4bd 0680 b43d ed7a 7fbd
00000280: 08c2 9c3d 81fd 2fbd dcb6 803d d357 93bd
00000290: 3fc1 b5bc 63a9 a13c 764f 983d 92bc c93d
000002a0: b33e 93bd 5240 efbc dcfe ec3d baba 093d
000002b0: 9eaa a3bd 694a 873d 4efb 3dbb 75dc ce3c
000002c0: ab36 633d 740a d0bc 4586 4d3d c27b afbb
000002d0: 9e44 4e3d 25f5 94bd de23 d63c 1934 0c3d
000002e0: f960 29bc 2600 e83d aeaf abbc 1467 b7bc
000002f0: 14a6 24bc f5ce a83c 1348 c03a dbbe cdbc
00000300: dd7e 993d 8296 0bbd 1701 3f3d cb50 893c
00000310: 8355 bbbc ccd0 593c 908d 1d3e 8a52 8b3d
00000320: fefa ac3d 059c a5bd 65b6 26bd 3e89 40bd
00000330: 704d af3d fa08 f43d db91 f13d 28fa d83d
00000340: 0c39 98bd 8c95 5bbd ffa6 2dbd 4224 8abd
00000350: 58b1 d2bc b4cc 11be f1d8 153e 7ec4 4cbd
00000360: c5aa 61bd 1592 76bd a557 0ebd 5546 4fbb
00000370: 2cb9 12bd b119 b63d 3e8f 313e 6110 a5bd
00000380: b32f 02be 188e d53d 9814 c83d 6053 033d
00000390: 37c6 093d 4f13 0a3e 2501 a53d f7d1 61bd
000003a0: f67e b8bc 10ee 9c3d eb64 74bb 7f57 a83d
000003b0: 0394 bd3b b1c2 e43c 3214 37bd 7f6c 0bba
000003c0: 4df8 82ba 93cb a6bd 108f 9cbd 7d9a 523d
000003d0: 6749 e13b 7d7d b93d 8ac9 e03c 90fd 023d
000003e0: 59d8 86bc f526 c8bd b486 84bd 9584 6cbd
000003f0: 07df 793c 9d5b 603d f24c 023d f134 7e3d

bias f4 [84]
0.015786083 0.030760812 0.08585935 -0.11710777 0.09887616 -0.0231665 0.021144874 0.019532423
-0.074099526 -0.018610958 0.00066039053 0.047332287 0.04514474 0.11325024 -0.043700103 0.022775201
-0.11290028 -0.08052046 0.08815204 -0.099184394 -0.023674399 -0.0025391392 -0.060460556 -0.03947246
-0.0021147833 -0.058249768 0.0463496 0.02298551 -0.01736388 0.0078555755 -0.04898394 -0.03470055
0.042015955 -0.061897255 0.004639866 0.040580317 -0.0703265 0.010623795 -0.00457417 -0.09125868
-0.011753947 0.035698514 -0.02582643 -0.079339825 0.029739672 0.07887122 0.07552502 0.048620604
-0.034057382 0.07710019 -0.059719216 -0.054152753 -0.08215273 0.034890786 -0.08930646 0.045636486
-0.057421256 0.14443624 -0.018281618 0.09020309 -0.03473755 0.03218759 -0.00392782 0.090200014
-0.006886737 0.045005053 0.022822598 -0.07002353 -0.018801138 0.017399738 0.056499835 0.0073262025
-0.04126713 -0.00043763116 0.07078398 0.065337025 -0.02159172 0.061356753 0.04191784 -0.09144579
-0.023208914 -0.056649707 0.05211214 0.097081326
00000000: d151 813c 19fe fb3c 07d7 af3d 33d6 efbd
00000010: 967f ca3d acc7 bdbc 0438 ad3c 7602 a03c
00000020: 7ec1 97bd 0276 98bc 0f1e 2d3a 80df 413d
00000030: b1e9 383d beef e73d e1fe 32bd 0f93 ba3c
00000040: 4338 e7bd e9e7 a4bd 0f89 b43d 3021 cbbd
00000050: d0f0 c1bc b067 26bb 7da5 77bd e0ad 21bd
00000060: 2d98 0abb 4f97 6ebd 14d9 3d3d 1c4c bc3c
00000070: b23e 8ebc acb4 003c 62a3 48bd 2a22 0ebd
00000080: ec18 2c3d fa87 7dbd 040a 983b 8c37 263d
00000090: 5707 90bd 6d0f 2e3c ebe2 95bb d5e5 babd
000000a0: a093 40bc 9b38 123d f391 d3bc eb7c a2bd
000000b0: 9da0 f33c 3c87 a13d ddac 9a3d 6626 473d
000000c0: c17f 0bbd b4e6 9d3d 239c 74bd 47cf 5dbd
000000d0: b13f a8bd a4e9 0e3d 4ee6 b6bd 53ed 3a3d
000000e0: 8d32 6bbd 18e7 133e 55c3 95bc 66bc b83d
000000f0: f648 0ebd 22d7 033d f1b4 80bb c9ba b83d
00000100: 23aa e1bb 3857 383d 75f6 ba3c 7f68 8fbd
00000110: d804 9abc e589 8e3c 5f6c 673d a410 f03b
00000120: b907 29bd dc71 e5b9 31f7 903d 6bcf 853d
00000130: 1ee1 b0bc 3851 7b3d 0ab2 2b3d ee47 bbbd
00000140: 9f20 bebc 8609 68bd 8a73 553d 93d2 c63d

weight f4 [10, 84]
0.077498116 -0.07696128 -0.038355544 -0.07287104 -0.26071742 0.099429354 -0.11588791 -0.024921328
0.20512569 0.015682193 0.07925286 -0.24569212 0.16897355 0.13035816 -0.0018488846 -0.15794668
0.18752646 0.13996302 0.115996234 -0.192691 0.09923211 -0.034775905 -0.060161583 0.07439578
0.06226981 -0.0529592 0.027509697 0.06981303 -0.152194 -0.23050782 0.15961371 0.11891523
-0.28206792 0.057827916 -0.05876688 0.026707303 0.13393256 0.06599561 0.19515942 0.043002762
-0.21677361 0.21472728 0.14086273 -0.03749429 -0.10858207 0.2079616 0.29919502 -0.12956408
0.023260355 -0.080943435 -0.08029551 -0.108454816 0.10622076 0.05703008 0.15935403 0.13622408
-0.19798635 -0.26006597 -0.010418905 0.20968135 -0.19812702 -0.08964831 -0.022270566 -0.29019964
-0.021689683 -0.09440752 0.005127012 -0.13921918 0.23313603 0.037852682 -0.1294877 0.04512602
-0.16910656 -0.111860566 0.20278537 -0.008653726 0.10030525 0.1971189 -0.033439975 -0.09731042
-0.08041852 -0.05936222 0.27787122 -0.12804525 -0.091410376 -0.064229295 -0.17418064 0.11838549
0.049792573 -0.03190822 0.13785051 -0.020207357 -0.1294264 -0.016599657 -0.23312262 -0.17382553
-0.12105812 0.25194326 0.061740525 -0.17255042 -0.17458232 -0.14734021 -0.11635412 -0.06977112
0.1036576 0.44880396 -0.20416932 0.06325365 0.13137574 0.21985884 0.025177917 0.17103408
-0.19043048 -0.22284183 0.002737156 0.08949021 -0.20969471 0.19463643 0.16067877 -0.13471189
-0.17125306 0.057969514 -0.30456483 -0.08608517 0.070979536 -0.0017562197 0.09193892 -0.080730505
-0.070604645 -0.20625335 -0.15255599 0.24335766 -0.068787836 0.07820196 -0.13125938 -0.015360811
-0.1430545 -0.030187048 -0.081343256 0.076592766 -0.005369138 0.3272399 0.1886816 -0.1249988
0.010177061 -0.1497865 -0.18085554 0.26381522 0.16173097 0.027551001 -0.2065221 -0.113739885
0.06534642 -0.093593754 0.0928025 0.26488248 -0.16910546 0.1065164 -0.24247772 -0.095872134
0.0904888 0.16961646 0.039361507 0.15095223 0.0045769718 -0.18637452 0.11281115 0.06558373
-0.14238515 0.21516609 0.2149253 -0.033832353 0.05252885 -0.039274637 -0.071978815 0.13825752
0.07754179 0.010391145 0.21754566 0.19105412 0.07756356 0.13302544 0.020693453 0.24674228
-0.0878543 -0.012528221 -0.25362805 -0.04929849 -0.121192455 -0.08547296 0.31122077 -0.13913897
0.0784307 0.2060277 -0.14395717 -0.11546814 0.058348615 0.012564462 -0.14741784 -0.27497885
-0.09197303 0.17619574 0.19543782 0.17536694 0.21056458 -0.11027246 0.08627807 -0.09298256
0.2053559 -0.18027842 -0.103830144 -0.2519172 -0.13198327 -0.005637105 -0.09127559 0.17093973
0.116895296 -0.04905285 -0.17432475 -0.067741424 -0.2218249 -0.20218599 0.17915475 -0.22297971
0.26693004 0.0010248155 -0.0016483611 -0.0048699584 -0.25536996 -0.06251127 -0.0047802744 0.052523762
0.20324443 -0.14594205 -0.18213825 0.0646825 0.3526728 0.025211165 0.059433058 -0.13324611
-0.19638018 -0.15834436 -0.15085077 0.38802865 0.07902949 -0.15388861 0.022780709 -0.1287014
-0.09975801 -0.13456717 -0.20379697 -0.033400644 -0.08751258 0.13652311 0.080055 -0.011468655
00000000: 55b7 9e3d e09d 9dbd b41a 1dbd 693d 95bd
00000010: c17c 85be 9ea1 cb3d a456 edbd d027 ccbc
00000020: 780c 523e f177 803c 534f a23d b796 7bbe
00000030: 6707 2d3e 9c7c 053e 4656 f2ba c6bc 21be
00000040: f006 403e 7752 0f3e 6f8f ed3d ca50 45be
00000050: 343a cb3d 2e71 0ebd fe6b 76bd d15c 983d
00000060: a10e 7f3d bfeb 58bd 045c e13c 22fa 8e3d
00000070: bed8 1bbe 3e0a 6cbe c771 233e d489 f33d
00000080: 356b 90be f7dc 6c3d 8ab5 70bd 46c9 da3c
00000090: 9e25 093e b528 873d dfd7 473e aa23 303d
000000a0: e7f9 5dbe 78e1 5b3e 523e 103e 9d93 19bd
000000b0: 4760 debd e3f3 543e 1730 993e 72ac 04be
000000c0: 808c be3c acc5 a5bd f971 a4bd 8f1d debd
000000d0: 458a d93d 6098 693d b42d 233e 537e 0b3e
000000e0: efbc 4abe 5e27 85be 0eb4 2abc b5b6 563e
000000f0: cfe1 4abe 8899 b7bd c370 b6bc 0c95 94be
00000100: 90ae b1bc bb58 c1bd 7e00 a83b 798f 0ebe
00000110: 36bb 6e3e 6a0b 1b3d 6c98 04be 10d6 383d
00000120: 452a 2dbe 2717 e5bd f8a6 4f3e 5cc8 0dbc
00000130: d76c cd3d 89d9 493e 5bf8 08bd af4a c7bd
00000140: 77b2 a4bd cd25 73bd 2345 8e3e 4b1e 03be
00000150: 5d35 bbbd a68a 83bd 695c 32be 1774 f23d
00000160: 4cf3 4b3d 32b2 02bd af28 0d3e e689 a5bc
00000170: 5b88 04be 01fc 87bc b2b7 6ebe 52ff 31be
00000180: 52ed f7bd b5fe 803e a2e3 7c3d 0fb1 30be
00000190: b5c5 32be 5ae0 16be 124b eebd 29e4 8ebd
000001a0: 704a d43d a2c9 e53e c311 51be 218b 813d
000001b0: 5d87 063e ad22 613e eb41 ce3c 8f23 2f3e
000001c0: 3500 43be a630 64be dc61 333b a546 b73d
000001d0: 36ba 56be c64e 473e fa88 243e eaf1 09be
000001e0: f65c 2fbe 7171 6d3d ecef 9bbe 6c4d b0bd
000001f0: b85d 913d f430 e6ba 794a bc3d 0956 a5bd
00000200: 2b99 90bd 1434 53be a337 1cbe c032 793e
00000210: a3e0 8cbd 5928 a03d dc68 06be e9ab 7bbc
00000220: e17c 12be d44a f7bc 4b97 a6bd abdc 9c3d
00000230: 98ef afbb fd8b a73e c035 413e 5fff ffbd
00000240: b0bd 263c a261 19be 3232 39be ca12 873e
00000250: ce9c 253e a3b2 e13c 887a 53be 75f0 e8bd
00000260: 58d4 853d 15ae bfbd 3d0f be3d ad9e 873e
00000270: fb29 2dbe 4525 da3d 144c 78be 9c58 c4bd
00000280: 3152 b93d f0af 2d3e 8839 213d 3993 1a3e
00000290: 6cfa 953b f6d8 3ebe 8809 e73d c350 863d
000002a0: 6acd 11be 8054 5c3e 6115 5c3e cb93 0abd
000002b0: 7e28 573d 71de 20bd a169 93bd 6193 0d3e
000002c0: 3bce 9e3d 9f3f 2a3c 4ac4 5e3e b1a3 433e
000002d0: a5d9 9e3d d237 083e 5185 a93c 02aa 7c3e
000002e0: f5ec b3bd 2b43 4dbc 89db 81be 37ed 49bd
000002f0: c033 f8bd 720c afbd 5458 9f3e 727a 0ebe
00000300: 46a0 a03d edf8 523e 8269 13be 8f7a ecbd
00000310: f5fe 6e3d 2cdb 4d3c b4f4 16be 07ca 8cbe
00000320: 5b5c bcbd a86c 343e da20 483e 6493 333e
00000330: 3e9e 573e 87d6 e1bd 8fb2 b03d a46d bebd
00000340: d148 523e e89a 38be e6a4 d4bd 4bfb 80be
00000350: 9f26 07be 77b7 b8bb b2ee babd d30a 2f3e
00000360: cd66 ef3d a4eb 48bd 3082 32be 04bc 8abd
00000370: 1126 63be d809 4fbe 5874 373e cb54 64be
00000380: 0eab 883e 1a53 863a d20d d8ba 2c94 9fbb
00000390: dabf 82be e905 80bd d9a3 9cbb 2823 573d
000003a0: 4f1f 503e d571 15be 7382 3abe 4278 843d
000003b0: 8791 b43e a587 ce3c 1470 733d ab71 08be
000003c0: e317 49be 0625 22be a078 1abe b1ab c63e
000003d0: 37da a13d fa94 1dbe 9c9e ba3c 4dca 03be
000003e0: ed4d ccbd facb 09be 27b0 50be 1dcf 08bd
000003f0: cc39 b3bd b7cc 0b3e e0f3 a33d 07e7 3bbc

bias f4 [10]
0.0308475 0.04524997 0.081508175 0.033431128 -0.08188331 -0.021907538 0.020270338 -0.118983276
0.035393838 0.018981451
00000000: e5b3 fc3c 0858 393d c2ed a63d 14ef 083d
00000010: 70b2 a7bd 7077 b3bc fb0d a63c 81ad f3bd
00000020: 21f9 103d fd7e 9b3c
