Models/lenet5_980.pth (torch_old, 263876 bytes, 10 tensors)

weight f4 [6, 1, 5, 5]
0.36894608 0.2507386 -0.51183724 -0.4188554 -0.03253097 0.1611464 0.23058362 -0.25795904
-0.14862388 -0.42616197 0.53772 0.59889346 0.028214088 0.044471957 -0.21019068 0.60461205
0.75095576 0.10978164 0.037148725 0.34634176 0.4101527 0.6420828 0.065870225 0.25432584
-0.087151766 -0.14746901 -0.23828268 -0.27646437 -0.2773866 0.14970152 -0.009342307 -0.1975343
-0.1790263 -0.22164063 0.045403168 -0.14748588 -0.33153495 -0.16190785 -0.23004615 0.067038454
-0.29672742 -0.10860515 -0.15969023 -0.19839881 0.04351597 -0.02994697 -0.2647103 -0.17800029
-0.23191142 0.11276031 0.042104542 -0.043611266 0.39507043 0.6426274 0.25153947 -0.046808634
-0.26756862 -0.20274796 0.43481687 0.3128904 -0.2637689 -0.023835262 -0.401736 0.3327345
0.3109668 -0.21795473 -0.36784917 -0.26971105 0.21714959 0.32097936 -0.00044804256 -0.0067796293
-0.36050916 0.08099268 0.22341776 -0.33462292 -0.13159074 -0.30682683 0.1834549 0.4908519
-0.19147216 -0.30082083 0.08881374 0.7134982 0.57842994 0.022443043 -0.21150649 0.41844922
0.5038026 0.17034456 0.072030604 0.023225253 0.2969998 0.20902057 0.094556704 -0.006590992
0.34901538 0.22915803 0.106137596 -0.08519135 -0.4297228 0.20520435 0.019590078 -0.13104372
0.3155135 0.17208132 0.59715796 0.7423219 0.2532231 0.35382074 0.55573946 0.58698326
0.7941979 0.5040477 0.0021860371 -0.21589337 -0.449673 0.15198278 0.096341275 -0.35307866
-0.3349328 -0.7547466 -0.5687254 -0.34330833 -0.32768652 0.102526195 0.11040608 -0.044623975
0.14055575 0.1052752 -0.32653123 0.036395285 0.17495792 0.026530905 0.05845912 -0.0055303914
0.16510282 0.4743295 0.85850304 0.08082704 0.36474612 0.26544216 0.47810352 0.93480283
0.17009391 -0.051605143 -0.35979456 -0.26051366 0.49417883 0.19945769
00000000: 80e6 bc3e cf60 803e c407 03bf 3774 d6be
00000010: 323f 05bd 9003 253e 1d1e 6c3e 3513 84be
00000020: dc30 18be e731 dabe 05a8 093f 1551 193f
00000030: 3b21 e73c 3a28 363d 3a3c 57be dbc7 1a3f
00000040: a33e 403f 32d5 e03d 4329 183d b553 b13e
00000050: 89ff d13e 8a5f 243f f8e6 863d ff36 823e
00000060: a07c b2bd 1e02 17be 6000 74be bd8c 8dbe
00000070: 9e05 8ebe 5b4b 193e 7a10 19bc 6e46 4abe
00000080: ac52 37be c3f5 62be acf8 393d 8a06 17be
00000090: f3be a9be 2ccb 25be 3891 6bbe 754b 893d
000000a0: a8ec 97be 606c debd d685 23be 0f29 4bbe
000000b0: cd3d 323d 5953 f5bc 1c88 87be b545 36be
000000c0: 307a 6dbe e1ee e63d d075 2c3d baa1 32bd
000000d0: ac46 ca3e 3b83 243f c8c9 803e 69ba 3fbd
000000e0: c1fe 88be 299d 4fbe 51a0 de3e 2c33 a03e
000000f0: b80c 87be 2b42 c3bc 57b0 cdbe 2d5c aa3e
00000100: 0a37 9f3e 862f 5fbe ba56 bcbe 9117 8abe
00000110: 765c 5e3e 6857 a43e 41e7 eab9 a727 debb
00000120: a894 b8be 7ddf a53d a0c7 643e b253 abbe
00000130: b9bf 06be 6818 9dbe 9adb 3b3e f150 fb3e
00000140: 4711 44be 3005 9abe fae3 b53d d1a7 363f
00000150: fc13 143f 79da b73c 2895 58be fa3e d63e
00000160: 35f9 003f ce6e 2e3e c884 933d e342 be3c
00000170: 5c10 983e 7d09 563e f2a6 c13d 40f9 d7bb
00000180: 25b2 b23e 67a8 6a3e ab5e d93d cd78 aebd
00000190: a004 dcbe 1721 523e 5f7b a03c 5330 06be
000001a0: fc8a a13e 1636 303e 58df 183f cf08 3e3f
000001b0: 75a6 813e fe27 b53e f144 0e3f 8944 163f
000001c0: 8e50 4b3f 4509 013f 9e43 0f3b 2713 5dbe
000001d0: 8a3b e6be 60a1 1b3e 934e c53d bac6 b4be
000001e0: 507c abbe 1337 41bf fd97 11bf 1cc6 afbe
000001f0: 87c6 a7be 41f9 d13d 951c e23d a1c7 36bd
00000200: d9ed 0f3e 869a d73d 1a2f a7be 3913 153d
00000210: 2b28 333e 5757 d93c d572 6f3d 4938 b5bb
00000220: b710 293e 51db f23e dbc6 5b3f a688 a53d
00000230: 01c0 ba3e 09e8 873e fcc9 f43e 3d4f 6f3f
00000240: 192d 2e3e ea5f 53bd fe36 b8be 0c62 85be
00000250: 0205 fd3e a33e 4c3e

bias f4 [6]
0.74565613 0.081048995 0.061278883 0.6100273 0.7784302 0.7228591
00000000: 52e3 3e3f 04fd a53d 91ff 7a3d c02a 1c3f
00000010: 3447 473f 4b0d 393f

weight f4 [16, 6, 5, 5]
-0.021762868 -0.044671666 -0.02618551 -0.014010208 -0.07314851 -0.012669761 -0.018482799 -0.011102675
-0.035005946 -0.046225112 -0.06012371 -0.09134972 -0.26289916 -0.07260114 0.09318112 0.20355774
0.23207474 0.06905699 0.091276936 0.14594474 -0.060145408 0.118183345 0.073311806 0.04341172
0.08806769 -0.10449862 -0.040636703 0.02096367 -0.02553025 0.060534496 -0.0383048 -0.020828038
-0.09828738 -0.057011124 0.017831298 -0.08627054 -0.027320556 -0.08980116 -0.07272387 -0.040173035
-0.11639231 -0.17872296 -0.07614418 0.03013629 0.00563634 -0.16021982 -0.1637114 -0.060826555
-0.031843524 0.01637228 0.0316493 0.062459316 -0.02923775 0.00037965464 -0.049685016 -0.06165674
0.05112374 -0.0070727677 0.028188111 -0.009122569 0.02278111 -0.064659506 -0.012350244 0.079594135
0.075059325 0.11601943 -0.05512251 0.016243286 0.0111527685 0.051400103 0.19521007 0.062374957
-0.07954033 0.107979745 0.0069200825 -0.049546756 -0.043257233 0.0003764714 -0.03900623 0.0077284793
0.03656038 -0.11194784 -0.096484184 -0.07555877 -0.057620477 -0.052631743 -0.16540365 -0.029749714
-0.1480248 -0.12079377 -0.12366143 -0.050244357 0.007281519 -0.010544953 0.0652271 -0.18752238
-0.11141154 -0.087322876 -0.014794623 0.043169565 0.09748559 0.06897348 0.046547655 -0.047101323
0.06148939 0.11461306 0.14766592 0.11813723 0.06901936 -0.10990885 0.18941404 0.07792339
0.054302093 -0.013859949 -0.16748102 0.14309497 -0.11659484 -0.14968398 0.118197836 0.070851624
0.38861096 0.3709572 0.28399014 0.257862 0.057185125 -0.05686156 0.040649988 -0.03726243
-0.042850114 -0.1432457 -0.008166357 -0.004890321 0.070759356 -0.09283797 -0.09016861 -0.09078726
-0.057519313 0.014436045 0.041128792 -0.08717265 0.22443871 0.050267126 0.11979527 0.056120656
0.02722314 0.08211637 0.14242375 0.049802814 0.13096716 -0.005304953 -0.008276987 -0.004829483
-0.014926622 0.005529149 0.01620107 -0.0020611815 0.01783009 -0.148367 -0.19272153 -0.11152211
-0.08016177 -0.14356668 -0.2210422 -0.15250118 0.04700639 -0.0930915 -0.08368622 -0.040187296
0.06566807 0.117835626 0.08528711 0.05050756 0.057915114 -0.05044782 0.067608885 0.0648923
0.030452816 -0.005764266 0.09519955 0.04034906 -0.010465365 -0.06469394 -0.041945804 -0.013066596
0.03128457 -0.0759476 0.06259744 -0.019633029 0.10504327 0.0018726584 -0.057324857 -0.018303338
-0.009284936 0.0136673385 -0.092683546 -0.015958445 0.05032757 -0.018188799 -0.0075089554 -0.07379606
0.07354203 -0.09301767 -0.0403527 -0.07648439 -0.05466692 -0.028870203 -0.122730695 0.036990654
-0.054990113 -0.013968274 0.006553325 -0.072579205 0.021193525 -0.0035924339 -0.078496784 -0.09437938
-0.11412163 -0.011375686 0.060403284 -0.034050915 -0.13917759 -0.16282092 -0.0687379 0.005214024
-0.07942179 -0.050734483 -0.066430226 0.11018794 0.07326241 0.048860822 -0.0044514285 -0.0032730633
-0.096268795 -0.029863734 0.03586533 -0.033162028 -0.15752113 -0.11038426 0.040010754 0.08603059
-0.121641636 -0.113937296 0.0125861 0.16138849 0.19037147 0.031010425 0.16607372 0.18659122
0.19062681 -0.026236217 0.03031589 -0.00932734 0.029853992 0.06644009 0.019368282 -0.0034827015
00000000: 0b48 b2bc a3f9 36bd ff82 d6bc 128b 65bc
00000010: e3ce 95bd d494 4fbc 3d69 97bc ffe7 35bc
00000020: 6562 0fbd 8b56 3dbd 4844 76bd 9015 bbbd
00000030: b89a 86be e8af 94bd bed5 be3d 7171 503e
00000040: 00a5 6d3e c06d 8d3d 67ef ba3d 8a72 153e
00000050: 085b 76bd 1c0a f23d 8024 963d 7dd0 313d
00000060: d55c b43d 5f03 d6bd ac72 26bd 01bc ab3c
00000070: d124 d1bc 05f3 773d 7ee5 1cbd 909f aabc
00000080: e54a c9bd 7f84 69bd f112 923c 9cae b0bd
00000090: 5ccf dfbc ace9 b7bd 41f0 94bd 7b8c 24bd
000000a0: 175f eebd 2703 37be 7bf1 9bbd 61e0 f63c
000000b0: 0cb1 b83b aa10 24be f6a3 27be 4425 79bd
000000c0: 5b6e 02bd 291f 863c b2a2 013d 57d5 7f3d
000000d0: 0284 efbc 620c c739 8482 4bbd c78b 7cbd
000000e0: 2067 513d adc2 e7bb c1ea e63c d476 15bc
000000f0: 739f ba3c 346c 84bd ae58 4abc 4002 a33d
00000100: b4b8 993d 989b ed3d 24c8 61bd a410 853c
00000110: 1aba 363c ea88 523d 26e5 473e e27c 7f3d
00000120: 0ae6 a2bd 7c24 dd3d dcc1 e23b 8af1 4abd
00000130: 7f2e 31bd 2361 c539 ffc4 1fbd 2f3f fd3b
00000140: 56c0 153d e944 e5bd 8099 c5bd 8ebe 9abd
00000150: 7303 6cbd 6294 57bd 935f 29be acb5 f3bc
00000160: d093 17be b962 f7bd 3442 fdbd 07cd 4dbd
00000170: cf99 ee3b bdc4 2cbc c995 853d de05 40be
00000180: bc2b e4bd 56d6 b2bd 2565 72bc 92d2 303d
00000190: 86a6 c73d f841 8d3d c1a8 3e3d 51ed 40bd
000001a0: 4cdc 7b3d 41ba ea3d bc35 173e eff1 f13d
000001b0: 065a 8d3d e417 e1bd c1f5 413e 4c96 9f3d
000001c0: df6b 5e3d d714 63bc 2580 2bbe 7d87 123e
000001d0: 47c9 eebd c246 19be b511 f23d a81a 913d
000001e0: 04f8 c63e 1aee bd3e 2867 913e 7d06 843e
000001f0: f33a 6a3d abe7 68bd 9a80 263d 7da0 18bd
00000200: 9a83 2fbd 00af 12be 2fcc 05bc fc3e a0bb
00000210: 48ea 903d d521 bebd 52aa b8bd acee b9bd
00000220: 5f99 6bbd 2985 6c3c aa76 283d 9387 b2bd
00000230: 43d3 653e e7e4 4d3d 3957 f53d c6de 653d
00000240: 1003 df3c a12c a83d 88d7 113e 09fe 4b3d
00000250: 411c 063e 2cd5 adbb 339c 07bc a440 9ebb
00000260: ca8e 74bc dd2d b53b 1bb8 843c e314 07bb
00000270: 6910 923c 85ed 17be cb58 45be b465 e4bd
00000280: db2b a4bd 2503 13be e358 62be 4529 1cbe
00000290: c689 403d c2a6 bebd ae63 abbd 6f9b 24bd
000002a0: fb7c 863d ce53 f13d 02ab ae3d 04e1 4e3d
000002b0: 6638 6d3d 60a2 4ebd 8776 8a3d 41e6 843d
000002c0: 2f78 f93c 2be2 bcbb fbf7 c23d 0e45 253d
000002d0: ec76 2bbc 427e 84bd 5dcf 2bbd 4715 56bc
000002e0: 4024 003d 6a8a 9bbd 1633 803d 72d5 a0bc
000002f0: ed20 d73d fd73 f53a 78cd 6abd e2f0 95bc
00000300: d81f 18bc f9ec 5f3c dfd0 bdbd 49bb 82bc
00000310: 4824 4e3d ad00 95bc af0d f6bb 6422 97bd
00000320: 349d 963d 0c80 bebd df48 25bd d9a3 9cbd
00000330: 6cea 5fbd 3481 ecbc 3b5a fbbd 8383 173d
00000340: 503d 61bd 30db 64bc 46bd d63b 68a4 94bd
00000350: 0b9e ad3c 0a6f 6bbb ecc2 a0bd fa49 c1bd
00000360: 9ab8 e9bd 1661 3abc 6f69 773d f978 0bbd
00000370: 9284 0ebe 87ba 26be 75c6 8cbd 67da aa3b
00000380: e4a7 a2bd f6ce 4fbd 920c 88bd 37aa e13d
00000390: 9a0a 963d 4922 483d 4add 91bb e480 56bb
000003a0: 9328 c5bd caa4 f4bc 86e7 123d e8d4 07bd
000003b0: 384d 21be 2511 e2bd 51e2 233d ce30 b03d
000003c0: 401f f9bd f557 e9bd ee35 4e3c 0643 253e
000003d0: bdf0 423e 9309 fe3c 3b0f 2a3e c511 3f3e
000003e0: ad33 433e 56ed d6bc 0859 f83c b3d1 18bc
000003f0: 5c90 f43c be11 883d 3baa 9e3c 093e 64bb

bias f4 [16]
0.06405631 0.08356002 0.03676831 0.02020463 0.0022097707 -0.0515024 -0.035828296 -0.10758026
0.07225523 -0.04403501 0.025193477 -0.04449132 -0.050129093 -0.09181649 0.03566012 -0.07174886
00000000: f42f 833d 8421 ab3d 5e9a 163d 2e84 a53c
00000010: cdd1 103b 2ef4 52bd b1c0 12bd 0a53 dcbd
00000020: 8dfa 933d 0e5e 34bd 8d62 ce3c 883c 36bd
00000030: 2a54 4dbd 490a bcbd 5910 123d 11f1 92bd

weight f4 [120, 400]
0.030306255 -0.047090225 -0.024822032 0.04181079 -0.048931744 0.010557915 -0.044963997 -0.017527208
-0.010441727 0.046277512 -0.030044295 -0.0399495 -0.015340284 -0.045720603 0.025470866 0.025181016
-0.03748117 0.028636254 0.007962472 -0.040358175 0.04183567 0.048772648 -0.007289436 0.041491408
0.038856883 0.04373018 0.00034802008 -0.04482868 0.02992871 0.02439183 -0.038482722 -0.036538314
0.041345246 0.007386502 -0.040061694 -0.0028661494 -0.047800295 0.011171983 0.032342646 -0.0016239462
-0.009317155 0.019628294 0.037626203 0.045644842 0.0011717802 0.047126364 -0.0063457964 0.0021919606
0.035695367 0.040775478 0.036812864 0.01711377 -0.046792362 -0.049508225 -0.03133564 0.02886707
-0.030664232 0.02918436 -0.027429685 -0.04994083 -0.020284856 0.028238509 -0.023770757 -0.03516734
-0.000456759 -0.018789083 0.04200376 0.0011828131 -0.021192914 0.020696834 -0.035722423 -0.034923565
0.0394999 0.044026446 -0.00010475757 0.0077997493 0.035110008 -0.0016098939 -0.038084213 -0.017323855
-0.0036113348 -0.011145826 0.0390098 0.043378595 0.031998698 -0.049708374 -0.03924526 0.03212138
-0.016887149 -0.0118591655 -0.028758973 -0.048081256 -0.007388264 -0.008394271 -0.050922118 0.021452885
0.013661439 -0.03511588 0.028606704 0.02028769 -0.019330502 -0.016984226 0.031069871 -0.031766362
-0.04030997 0.037495635 -0.021330692 -0.008692487 0.0053763404 0.042292394 -0.014139299 -0.0067610443
0.03937803 -0.00781379 -0.03536634 -0.044916604 -0.042112634 0.010892089 -0.029616855 -0.026823591
0.00062488153 -0.03893422 0.002939312 -0.043041326 -0.0016473003 -0.024467314 -0.03432825 -0.037765857
0.039633002 -0.0283795 -0.032003645 0.03538654 0.024981221 0.024169136 0.00014717791 0.033696245
0.007554877 -0.021549534 0.026900703 0.0033438944 -0.033206984 -0.045728456 0.022298496 -0.044607263
-0.005948748 0.023675995 -0.025222825 0.02331069 0.0149111925 0.032762777 -0.0453222 0.0101614455
0.02657308 -0.011281167 0.0077290847 -0.039489143 -0.041627605 -0.012960479 0.016720986 0.0043666847
-0.025747472 -0.033415657 0.022567589 -0.017268268 0.015617514 -0.03022004 -0.026635656 0.03664005
0.018399166 0.025998706 0.009111609 -0.0426403 0.01823848 0.0052171787 -0.0033379002 -0.044699866
-0.0017163083 -0.018248454 0.008528456 0.026920877 -0.04212187 0.024401737 0.021323591 0.0015471625
-0.002744013 -0.008532766 0.00095544907 -0.025855789 -0.049768396 -0.040285803 0.04040857 -0.0021683977
0.0041413344 -0.051663093 -0.042232506 -0.024498705 -0.03571642 -0.017866218 -0.01850695 0.019199952
0.021204326 0.0010997454 0.03557421 0.043371234 0.0116349235 -0.010841402 -0.018416995 -0.010000313
0.02242009 0.029165506 0.04281688 0.005946722 -0.045680504 0.043275062 0.0068987175 -0.027447782
0.019121427 0.0042678737 -0.012355697 -0.011841315 -0.04137379 -0.027995767 -0.038905676 3.763404e-05
0.035215955 0.01279603 0.02486902 -0.03257689 -0.04310768 0.0059393207 -0.019678168 0.007837389
-0.046327934 -0.008243455 -0.048923757 -0.011059936 -0.017581582 0.01639178 0.023126625 0.03427252
0.042687055 -0.043671492 -0.021636639 0.0033912817 -0.024411224 0.017168798 0.013514178 -0.05118463
-0.00014105687 0.028586375 0.008389245 0.021575235 -0.0010570432 0.03255547 0.030638833 -0.03851689
00000000: d344 f83c aee1 40bd 9357 cbbc ca41 2b3d
00000010: a76c 48bd 1bfb 2c3c 2b2c 38bd 3895 8fbc
00000020: c713 2bbc 7d8d 3d3d 741f f6bc 16a2 23bd
00000030: d155 7bbc 8745 3bbd 47a8 d03c 6b48 ce3c
00000040: db85 19bd 9496 ea3c 0775 023c 9d4e 25bd
00000050: e15b 2b3d d4c5 473d 39dc eebb e5f2 293d
00000060: 6528 1f3d 6b1e 333d 7776 b639 479e 37bd
00000070: 0e2d f53c 60d1 c73c 0fa0 1dbd 33a9 15bd
00000080: a259 293d 780a f23b bb17 24bd 02d6 3bbb
00000090: 3eca 43bd b10a 373c b979 043d 98da d4ba
000000a0: fba6 18bc 84cb a03c ef1d 1a3d 16f6 3a3d
000000b0: 6b96 993a 9307 413d 66f0 cfbb ffa6 0f3b
000000c0: 4e35 123d 3004 273d 16c9 163d 2d32 8c3c
000000d0: 59a9 3fbd 23c9 4abd cd59 00bd a27a ec3c
000000e0: 8e33 fbbc 0a14 ef3c 38b4 e0bc c18e 4cbd
000000f0: 6d2c a6bc 7254 e73c e4ba c2bc a10b 10bd
00000100: 2879 efb9 90eb 99bc 220c 2c3d 9f08 9b3a
00000110: c39c adbc 688c a93c ad51 12bd 030c 0fbd
00000120: a6ca 213d 1355 343d 4bb1 dbb8 0a95 ff3b
00000130: 83cf 0f3d 1303 d3ba 31fe 1bbd c2ea 8dbc
00000140: 25ac 6cbb fc9c 36bc bdc8 1f3d c1ad 313d
00000150: 1111 033d 029b 4bbd a3bf 20bd b591 033d
00000160: eb56 8abc f24c 42bc f097 ebbc daf0 44bd
00000170: 4019 f2bb 2088 09bc b693 50bd f6bd af3c
00000180: 3ad4 5f3c abd5 0fbd 9b58 ea3c 5f32 a63c
00000190: 005b 9ebc 8122 8bbc 3e86 fe3c 721d 02bd
000001a0: 111c 25bd 0695 193d b4bd aebc ef6a 0ebc
000001b0: 032c b03b ca3a 2d3d 85a8 67bc c08b ddbb
000001c0: db4a 213d 6905 00bc 4cdc 10bd 79fa 37bd
000001d0: 4c7e 2cbd bc74 323c 0c9f f2bc 26bd dbbc
000001e0: 17cf 233a 7d79 1fbd 79a1 403b 1a4c 30bd
000001f0: 3aea d7ba ad6f c8bc c79b 0cbd 5fb0 1abd
00000200: 3756 223d 207c e8bc 4116 03bd 7af1 103d
00000210: 6ba5 cc3c 5afe c53c c553 1a39 1305 0a3d
00000220: e78e f73b a688 b0bc dd5e dc3c 3d25 5b3b
00000230: 0c04 08bd c34d 3bbd 56ab b63c 1bb6 36bd
00000240: b7ed c2bb 29f4 c13c 19a0 cebc 0ff6 be3c
00000250: 134e 743c 4332 063d c5a3 39bd 317c 263c
00000260: caaf d93c a5d4 38bc 4344 fd3b 5ebf 21bd
00000270: b581 2abd 3058 54bc 73fa 883c 6816 8f3b
00000280: 5dec d2bc dbde 08bd aadf b83c 2f76 8dbc
00000290: 9ae0 7f3c 0490 f7bc 0533 dabc e113 163d
000002a0: d9b9 963c 3dfb d43c dc48 153c 98a7 2ebd
000002b0: dd68 953c def4 aa3b acc0 5abb 3517 37bd
000002c0: c0f5 e0ba c87d 95bc f0ba 0b3c 2c89 dc3c
000002d0: fb87 2cbd 27e6 c73c d0ae ae3c 29ca ca3a
000002e0: e6d4 33bb 04cd 0bbc 1a77 7a3a 85cf d3bc
000002f0: f2d9 4bbd ba02 25bd 7583 253d ad1b 0ebb
00000300: 08b4 873b ae9c 53bd fefb 2cbd 82b1 c8bc
00000310: 614b 12bd 2d5c 92bc e39b 97bc 3849 9d3c
00000320: b2b4 ad3c 5525 903a 43b6 113d 09a6 313d
00000330: 68a0 3e3c 23a0 31bc 3ddf 96bc 5ad8 23bc
00000340: 56aa b73c 80ec ee3c c160 2f3d b8dc c23b
00000350: 7b1b 3bbd 3141 313d a30e e23b 2cda e0bc
00000360: 8aa4 9c3c 85d9 8b3b 8d6f 4abc 1302 42bc
00000370: 9077 29bd 6157 e5bc 8f5b 1fbd 3ed9 1d38
00000380: 9b3e 103d 71a6 513c 1dba cb3c 586f 05bd
00000390: ae91 30bd a29e c23b 1c34 a1bc 6468 003c
000003a0: 5cc2 3dbd 8e0f 07bc 4764 48bd bc34 35bc
000003b0: 4007 90bc 0e48 863c 0c74 bd3c 5861 0c3d
000003c0: 9fd8 2e3d e1e0 32bd 523f b1bc 4440 5e3b
000003d0: 0cfa c7bc 94a5 8c3c 926a 5d3c f9a6 51bd
000003e0: aae8 13b9 f92d ea3c 0b73 093c 8cbe b03c
000003f0: 7c8c 8aba e258 053d 4afe fa3c e3c3 1dbd

bias f4 [120]
-0.026535247 -0.012199374 -0.019095646 -0.026171353 -8.088059e-05 -0.047186747 -0.0022685288 0.02066778
-0.02727232 -0.032477736 -0.06137716 -0.026904456 -0.034594912 -0.0018471655 -0.027464384 -0.039234314
0.041076794 0.04845067 -0.0048811794 -0.0004229188 0.027285777 0.019223113 -0.03658838 0.03354252
-0.0396824 -0.024768231 0.0040689865 0.017431596 0.05638888 0.03647992 0.0469649 0.050973043
-0.019272553 -0.024743402 0.029008139 -0.035357513 0.019226756 0.039562684 0.011434082 0.05132958
0.04315225 0.035050094 -0.002020938 0.021652773 -0.040655613 0.0032936835 -0.0114441635 0.051392596
0.01734786 0.029157903 -0.045108467 -0.045280535 0.0051364936 0.00094017864 0.05867459 -0.006996635
0.031518914 -0.024623092 -0.017206574 0.015771937 -0.056840282 -0.04518001 0.0077824085 0.011594692
0.008848654 -0.038328372 0.032972213 0.021372043 -0.029496305 0.031557385 -0.033779163 -0.01887728
0.025976134 -0.020495864 0.0051921345 0.027663661 -0.012185457 0.027871735 0.003888877 0.0354644
-0.039144482 0.023786142 0.028122656 0.010557918 0.011026824 -0.0048301253 -0.016731218 -0.031600498
-0.045692258 0.045713123 0.054163974 -0.019168971 -0.03171277 0.026618255 -0.005838405 -0.0050652656
0.035800662 0.018095477 0.009008852 0.042660855 -0.013692973 -0.0045685386 -0.000415944 0.01193722
-0.0072767087 0.012810613 -0.05283493 -0.008687706 -0.02784139 0.03621927 0.028974554 0.0034032124
0.03382511 -0.014848441 -0.037714325 -0.02572881 0.0015277838 0.03588446 0.0216476 0.039372265
00000000: 7260 d9bc e2df 47bc 796e 9cbc 4e65 d6bc
00000010: 709e a9b8 e446 41bd 99ab 14bb 7a4f a93c
00000020: 336a dfbc 6007 05bd 9e66 7bbd bc66 dcbc
00000030: 65b3 0dbd 971c f2ba fdfc e0bc 29b4 20bd
00000040: 2440 283d 3674 463d 4df2 9fbb 33bb ddb9
00000050: 6c86 df3c ca79 9d3c b2dd 15bd e263 093d
00000060: 038a 22bd bfe6 cabc 2255 853b b5cc 8e3c
00000070: 07f8 663d f86b 153d 445e 403d 1cc9 503d
00000080: 79e1 9dbc adb2 cabc 7aa2 ed3c 0ad3 10bd
00000090: 6e81 9d3c 7b0c 223d 0456 3b3c f73e 523d
000000a0: 6ac0 303d b090 0f3d b771 04bb 2861 b13c
000000b0: 8086 26bd d7da 573b 4d80 3bbc 0b81 523d
000000c0: 191d 8e3c 8edc ee3c a8c3 38bd 1578 39bd
000000d0: 0850 a83b 5276 763a c454 703d 0744 e5bb
000000e0: fa19 013d 5eb6 c9bc cdf4 8cbc 2634 813c
000000f0: 5bd1 68bd ad0e 39bd 9303 ff3b aaf7 3d3c
00000100: f2f9 103c 36fe 1cbd df0d 073d 6c14 af3c
00000110: 3ca2 f1bc 5142 013d 055c 0abd 87a4 9abc
00000120: e7cb d43c f1e6 a7bc c822 aa3b e79e e23c
00000130: 83a5 47bc 4453 e43c 88dc 7e3b 1e43 113d
00000140: f755 20bd 28db c23c 7c61 e63c 1efb 2c3c
00000150: daa9 343c 0746 9ebb e80f 89bc 866f 01bd
00000160: ce27 3bbd af3d 3b3d 0bdb 5d3d 3f08 9dbc
00000170: 40e5 01bd 870e da3c 1750 bfbb 87fa a5bb
00000180: b7a3 123d f73c 943c dd99 133c 26bd 2e3d
00000190: 7e58 60bc aeb3 95bb 0f13 dab9 5494 433c
000001a0: 7571 eebb 9be3 513c 7169 58bd e156 0ebc
000001b0: a013 e4bc a85a 143d 0b5c ed3c 6e08 5f3b
000001c0: 338c 0a3d e046 73bc 567a 1abd 3ac5 d2bc
000001d0: eb3f c83a 95fb 123d 4f56 b13c d044 213d

weight f4 [84, 120]
0.07547995 -0.003310048 0.042286087 -0.071554266 0.11650966 -0.007029898 0.09988131 -0.083842136
-0.014664871 0.0532053 -0.03682983 0.05439665 0.036594316 -0.016110724 0.044087272 -0.083871186
0.08642176 0.034513175 0.07877263 -0.048749633 -0.03485248 0.016203247 -0.077234596 0.05261143
0.030163584 -0.0056698644 -0.09372228 -0.05458492 -0.07638617 -0.059653684 -0.08412291 0.018925663
-0.024728728 -0.07515766 0.055818878 0.00031584885 0.12174439 -0.14895356 -0.11458545 0.030245498
-0.1209506 -0.061409645 0.036880717 0.003281927 0.056096334 0.054278664 0.07691337 0.06817762
0.077777825 -0.016058898 -0.06699693 0.0065227984 0.075387776 -0.013547083 0.056282267 -0.08440582
0.12723114 -0.008727567 0.00819687 -0.030064631 -0.077114865 0.040175635 0.083972245 -0.07518547
0.11941459 -0.023947917 -0.0008301336 -0.081599705 -0.09106919 -0.029690214 -0.026850231 -0.061463475
-0.012926616 0.0032055257 -0.099803664 -0.07919051 0.08497394 -0.07677869 0.0015739594 0.08294613
-0.008553242 0.083667226 0.094361395 -0.02312042 0.021323796 -0.061532702 -0.021532403 -0.019660491
-0.025798764 0.051596396 0.04344062 0.07164872 0.08098863 -0.09114329 -0.07720884 -0.07172639
-0.009022909 0.11870214 -0.0024368926 0.05985123 -0.08150467 0.057363875 -0.0064349426 -0.04927674
0.019974953 0.01037084 0.089685336 -0.018368196 -0.05109208 -0.050852887 -0.034622144 0.012811184
-0.102723226 0.060049817 -0.0077982973 0.012338433 0.08017917 -0.04760151 0.018062033 -0.040657166
-0.03947686 -0.06140208 0.06796513 0.050398365 -0.056691423 -0.058824863 0.037505273 -0.040993534
0.022405704 -0.013308475 -0.029505627 0.06908394 0.007629543 -0.027754914 -0.07095668 -0.041096184
0.046185773 0.045058526 -0.07298754 0.002106519 -0.035341118 0.08357654 0.027367838 -0.06735698
-0.07019454 -0.03586531 -0.08369821 -0.019641476 -0.07891934 -0.05940339 -0.06863215 -0.024740616
-0.015393505 -0.013897167 0.07966384 -0.054675635 0.038626846 -0.028625268 0.046968114 0.03142974
-0.057008438 -0.049461003 0.032722384 -0.07571186 0.076696254 -0.08522081 0.029482862 0.04056726
0.055633284 0.021096986 -0.039373524 0.061465513 -0.03322407 0.0693825 0.043803286 -0.0077614356
-0.039116863 -0.024351377 0.05194387 -0.08881952 -0.028106606 0.047523078 -0.04767237 0.030248018
-0.07189264 0.100868374 -0.06404522 0.03914333 -0.067281246 0.054861523 -0.0047823954 -0.0039963513
0.070387654 -0.0014608435 0.05167059 -0.01684931 0.09145394 -0.046791296 0.050848827 0.01592324
0.061327342 0.02961352 -0.004375351 0.048022307 0.0037007667 -0.005566274 0.012412228 -0.05153863
0.047718287 -0.005801902 0.010298415 -0.070324615 0.09490684 -0.07666334 -0.07701193 0.042124078
0.038516596 0.006227141 -0.03923091 -0.019335238 0.015961954 0.07480992 -0.04356489 -0.046109445
0.021788282 -0.007179862 -0.08622039 0.08452549 0.05210033 -0.0018310426 0.03236532 0.05947228
0.07202713 0.08385145 -0.07907128 -0.017345078 -0.07322768 0.043094706 0.06552661 0.104395494
-0.058054976 -0.09088436 -0.052755464 -0.07378231 0.09957074 0.055810228 -0.050705753 0.067813784
-0.032174893 -0.115595065 0.053294845 0.09218339 -0.17478366 0.06217803 -0.050142523 0.07234727
00000000: 3b95 9a3d 64ed 58bb 2d34 2d3d 0b8b 92bd
00000010: 9e9c ee3d 0f5b e6bb 928e cc3d 6db5 abbd
00000020: ed44 70bc cded 593d e0da 16bd 06cf 5e3d
00000030: ece3 153d a3fa 83bc db94 343d a8c4 abbd
00000040: e4fd b03d b05d 0d3d 8b53 a13d b2ad 47bd
00000050: 79c1 0ebd acbc 843c 2c2d 9ebd 157f 573d
00000060: 9f19 f73c 45ca b9bb 77f1 bfbd 7094 5fbd
00000070: 5a70 9cbd 6c57 74bd a248 acbd fe09 9b3c
00000080: e793 cabc 42ec 99bd 56a2 643d 8498 a539
00000090: 1f55 f93d 4887 18be c7ab eabd 68c5 f73c
000000a0: f3b4 f7bd ae88 7bbd 3c10 173d 9915 573b
000000b0: 45c5 653d 4e53 5e3d c284 9d3d b5a0 8b3d
000000c0: fb49 9f3d f38d 83bc b035 89bd 33bd d53b
000000d0: e864 9a3d 96f4 5dbc 3c88 663d f5dc acbd
000000e0: e148 023e 12fe 0ebc 2a4c 063c 1a4a f6bc
000000f0: 66ee 9dbd 358f 243d a4f9 ab3d d7fa 99bd
00000100: a38f f43d 6c2e c4bc 539d 59ba bf1d a7bd
00000110: 7c82 babd e438 f3bc 04f5 dbbc 20c1 7bbd
00000120: 28ca 53bc cc13 523b dd65 ccbd a22e a2bd
00000130: d106 ae3d 253e 9dbd 504d ce3a a9df a93d
00000140: e622 0cbc b959 ab3d 8c40 c13d 0967 bdbc
00000150: 3eaf ae3c b709 7cbd b964 b0bc 0a0f a1bc
00000160: ee57 d3bc be56 533d cbee 313d 90bc 923d
00000170: 5edd a53d 55a9 babd ab1f 9ebd 49e5 92bd
00000180: d3d4 13bc 1c1a f33d 46b4 1fbb 9026 753d
00000190: eceb a6bd 62f6 6a3d 36dc d2bb 68d6 49bd
000001a0: 83a2 a33c 75ea 293c f2ac b73d e678 96bc
000001b0: ee45 51bd 1e4b 50bd f3cf 0dbd 00e6 513c
000001c0: 8e60 d2bd ccf6 753d dc88 ffbb 2427 4a3c
000001d0: fa34 a43d cdf9 42bd d4f6 933c 2188 26bd
000001e0: 7db2 21bd bf80 7bbd 4d31 8b3d 846e 4e3d
000001f0: 4435 68bd 57f2 70bd 219f 193d d6e8 27bd
00000200: 2b8c b73c ca0b 5abc c9b5 f1bc e17b 8d3d
00000210: 3f01 fa3b 465e e3bc bc51 91bd 7954 28bd
00000220: 4b2d 3d3d 4a8f 383d 7e7a 95bd 860d 0a3b
00000230: d9c1 10bd 2d2a ab3d 8432 e03c 75f2 89bd
00000240: 28c2 8fbd 81e7 12bd f869 abbd 29e7 a0bc
00000250: 77a0 a1bd f850 73bd 038f 8cbd d5ac cabc
00000260: 0a35 7cbc f1b0 63bc cc26 a33d 8ff3 5fbd
00000270: 2f37 1e3d 8a7f eabc a361 403d 79bc 003d
00000280: ae81 69bd 9f97 4abd e807 063d d20e 9bbd
00000290: ed12 9d3d 3f88 aebd 0b86 f13c db29 263d
000002a0: badf 633d 96d3 ac3c 2246 21bd 43c3 7b3d
000002b0: f615 08bd 6a18 8e3d 136b 333d a453 febb
000002c0: 0139 20bd 8a7c c7bc 18c3 543d 02e7 b5bd
000002d0: d33f e6bc 8fa7 423d 1a44 43bd b1ca f73c
000002e0: 733c 93bd 1494 ce3d 242a 83bd c254 203d
000002f0: c0ca 89bd 7ab6 603d a4b5 9cbb d3f3 82bb
00000300: 6727 903d c679 bfba 8aa4 533d 9007 8abc
00000310: 344c bb3d 3ba8 3fbd dc46 503d 7471 823c
00000320: 6132 7b3d 0d98 f23c 1b5f 8fbb 0ab3 443d
00000330: 9088 723b 4a65 b6bb a85c 4b3c 2c1a 53bd
00000340: 4074 433d e21d bebb afba 283c 5a06 90bd
00000350: 845e c23d ab01 9dbd 6eb8 9dbd 4c8a 2c3d
00000360: 94c3 1d3d 0b0d cc3b 97b0 20bd ef64 9ebc
00000370: a5c2 823c f135 993d 1971 32bd 42dd 3cbd
00000380: 577d b23c 0c45 ebbb 5194 b0bd b31b ad3d
00000390: 2867 553d 98ff efba 7f91 043d 3599 733d
000003a0: f682 933d 4fba ab3d 20f0 a1bd 4417 8ebc
000003b0: 65f8 95bd 1384 303d d132 863d 4ecd d53d
000003c0: 0ecb 6dbd 9421 babd 1d16 58bd 2e1b 97bd
000003d0: beeb cb3d 4499 643d d6b0 4fbd f4e1 8a3d
000003e0: d2c9 03bd 1bbd ecbd b24b 5a3d a5ca bc3d
000003f0: 7dfa 32be 64ae 7e3d 3f62 4dbd ce2a 943d

bias f4 [84]
-0.071132906 -0.05737101 -0.0956284 0.04226656 0.06512259 0.020987596 -0.023175241 0.021977497
-0.05293581 -0.010005597 -0.083735175 -0.0013698075 0.019567626 -0.023502514 0.08664736 -0.09113431
-0.026421161 0.051406667 -0.021374842 -0.09077592 -0.076524496 -0.004933661 -0.040946953 0.06971054
0.08375294 -0.03185833 0.030818276 -0.08931226 0.0016086396 -0.03198295 -0.061806794 -0.07602142
-0.04781104 -0.07926882 0.0237694 0.018346587 -0.066238135 0.038547345 -0.024648696 -0.051396366
-0.023461303 -0.012533516 -0.061057385 -0.077330865 0.07455999 -0.021973226 -0.06180399 0.11409748
-0.00080262555 0.12224198 0.05893379 -0.07483382 -0.024630643 0.07835185 -0.042311944 0.07313217
-0.07478273 0.017077116 -0.055863757 0.030684901 -0.052687004 0.014976 0.055150997 -0.026133422
-0.052174658 0.06594842 -0.074729696 0.107923634 0.067711614 -0.07738438 -0.035014752 -0.043985393
0.07692552 -0.0052291546 -0.018421542 0.032459006 -0.027345339 -0.002602325 0.08119196 0.057672147
-0.043652326 0.027861394 0.036403667 -0.047527313
00000000: 21ae 91bd ddfd 6abd d3d8 c3bd b31f 2d3d
00000010: fe5e 853d 2eee ab3c 01da bdbc 270a b43c
00000020: 38d3 58bd 84ee 23bc 597d abbd 1d8b b3ba
00000030: 494c a03c 5888 c0bc 2c74 b13d a0a4 babd
00000040: 3171 d8bc cc8f 523d 4b1a afbc bae8 b9bd
00000050: e0b8 9cbd 8caa a1bb feb7 27bd 66c4 8e3d
00000060: a986 ab3d e17d 02bd 9c76 fc3c 59e9 b6bd
00000070: fdd8 d23a 8e00 03bd 1f29 7dbd 1eb1 9bbd
00000080: 82d5 43bd b157 a2bd 0bb8 c23c 954b 963c
00000090: dca7 87bd d2e3 1d3d 10ec c9bc ff84 52bd
000000a0: eb31 c0bc 6059 4dbc 4f17 7abd a55f 9ebd
000000b0: e8b2 983d 3201 b4bc 2e26 7dbd f1ab e93d
000000c0: 4a67 52ba 015a fa3d 8f64 713d 7942 99bd
000000d0: 34c6 c9bc ef76 a03d 4a4f 2dbd 52c6 953d
000000e0: b027 99bd 4fe5 8b3c 65d1 64bd e75e fb3c
000000f0: 54ce 57bd e65d 753c 03e6 613d c215 d6bc
00000100: 18b5 55bd f70f 873d e20b 99bd 1107 dd3d
00000110: 63ac 8a3d b47b 9ebd a16b 0fbd 072a 34bd
00000120: 218b 9d3d 5459 abbb c6e8 96bc bcf3 043d
00000130: 5503 e0bc c58b 2abb f847 a63d a139 6c3d
00000140: c8cc 32bd 943d e43c 031c 153d 00ac 42bd

weight f4 [10, 84]
-0.120231226 -0.005981255 0.13732281 -0.11280315 0.19481258 -0.0691414 -0.1679298 -0.018826082
0.0766217 0.0340094 -0.1383099 0.09178967 0.19506903 -0.076734394 -0.17789614 -0.014166142
0.46588215 -0.011221776 0.15596126 -0.09559113 -0.06491832 -0.07206637 0.024542619 -0.17911594
-0.12133595 0.059149165 0.27743453 0.029073777 -0.06664389 0.12873398 0.09739331 -0.0529042
-0.07065352 -0.120152645 -0.086429 -0.01825193 0.0711661 -0.07583718 -0.02315136 -0.14412184
0.014583044 0.17986082 -0.016150918 0.23350519 -0.036692686 0.008127005 0.040196866 -0.31708226
0.16346754 -0.048974402 -0.12727265 0.074822195 -0.012136807 -0.042087037 0.11354716 -0.056952517
-0.20366724 -0.13880081 -0.086012304 -0.044740573 -0.1617393 0.20745012 -0.09764221 0.062416244
0.15381017 0.102613464 -0.09226975 -0.26826853 -0.012230494 0.21737963 -0.3132755 -0.28684068
0.23582323 0.065028295 0.10341169 0.2408774 0.15252987 -0.033850968 -0.05491083 -0.2145305
-0.24347764 -0.028745567 0.15156758 -0.297096 0.10205569 0.056167174 0.20426941 -0.026025344
-0.29184356 0.08200806 -0.15391466 0.24294001 0.017256336 0.27135345 0.07498926 -0.0302719
-0.06736604 0.0336231 -0.12608822 0.042233024 -0.080019966 -0.38413337 -0.10394221 -0.13921049
-0.008820072 0.3114465 0.342483 -0.21163209 -0.14370735 -0.08030069 -0.045054216 0.003779177
0.27548733 0.21617469 0.20949726 -0.20806277 0.030631887 -0.181733 0.11263513 -0.04648461
0.074043445 0.18142186 -0.03201025 -0.025002435 0.012376715 0.23618753 -0.13208894 -0.20173997
-0.1780865 0.0008233404 -0.08460289 0.06081352 -0.10740985 0.13589802 0.24847305 0.31186378
-0.22083417 0.050084323 -0.23833449 0.08888327 -0.2143004 0.2029113 -0.049923416 -0.07472763
-0.010681474 0.15941212 -0.052974302 0.11268173 0.17102464 -0.07478202 0.2170004 0.33081916
0.13866569 0.17908762 -0.14311184 -0.052981928 -0.1791731 -0.053900965 0.049479164 -0.28377867
-0.036684476 0.07451459 -0.12563288 -0.22240031 0.31462017 0.052927766 -0.09982701 0.07151224
-0.15172072 -0.09192301 0.022138378 0.07985556 0.29403582 0.03925332 -0.04350623 0.07016222
-0.1089263 0.29801422 0.06846771 -0.043961488 0.14477333 0.10858898 0.116601534 0.045185525
0.14441143 0.059674285 0.06739617 -0.08185346 -0.048526045 -0.097670786 -0.26128733 0.12580149
-0.025393758 0.050788373 -0.055453453 0.09013225 0.08501417 -0.2654348 0.11557224 0.07326785
-0.08298604 -0.07461886 0.022666194 0.07710224 -0.022179924 -0.28903857 0.0887784 0.3480994
0.092655115 -0.028785989 -0.089405246 -0.32552287 -0.06105353 -0.114127375 0.0032195454 -0.1392556
-0.14802873 -0.2319079 -0.15285236 0.020516388 0.22606246 -0.09457645 -0.3693474 -0.015192307
0.3311144 0.044443946 0.086566314 0.11379087 -0.16441922 -0.21322261 -0.11122732 -0.27680248
0.07943096 0.06127397 -0.06275541 0.15520921 0.40859312 -0.407572 0.1590831 -0.23250914
-0.013852933 -0.07482166 0.1959702 0.037451535 0.19065335 -0.27233177 -0.057653762 0.19621794
0.06543455 -0.04212315 0.4541143 -0.023302047 0.039008584 0.029885031 -0.11394776 -0.11521906
00000000: ca3b f6bd 67fe c3bb 5a9e 0c3e 5705 e7bd
00000010: f37c 473e 029a 8dbd caf5 2bbe 2839 9abc
00000020: d6eb 9c3d 714d 0b3d 1ca1 0dbe 39fc bb3d
00000030: 2dc0 473e ec26 9dbd 682a 36be 1b19 68bc
00000040: 1b88 ee3e 8adb 37bc 4fb4 1f3e 48c5 c3bd
00000050: e5f3 84bd 8897 93bd 9a0d c93c 2b6a 37be
00000060: fc7e f8bd 6546 723d e60b 8e3e 212c ee3c
00000070: 987c 88bd d7d2 033e 2576 c73d 13b2 58bd
00000080: cbb2 90bd 9712 f6bd b001 b1bd 1285 95bc
00000090: 88bf 913d 8650 9bbd eca7 bdbc ad94 13be
000000a0: b8ed 6e3c 6f2d 383e ee4e 84bc fc1b 6f3e
000000b0: 124b 16bd 2127 053c 78a5 243d 9b58 a2be
000000c0: 0964 273e 6299 48bd c353 02be 613c 993d
000000d0: 75d9 46bc 7563 2cbd 6a8b e83d 0b47 69bd
000000e0: 258e 50be cd21 0ebe 3827 b0bd e441 37bd
000000f0: fd9e 25be ce6d 543e a4f8 c7bd 2da8 7f3d
00000100: 6a80 1d3e 0227 d23d ecf7 bcbd 7e5a 89be
00000110: 6962 48bc c498 5e3e a565 a0be c8dc 92be
00000120: a57b 713e 8e2d 853d 82c9 d33d 91a8 763e
00000130: ca30 1c3e 50a7 0abd 2eea 60bd e2ad 5bbe
00000140: 3452 79be d37b ebbc 8834 1b3e f81c 98be
00000150: 9302 d13d 8d0f 663d 002c 513e 1a33 d5bc
00000160: 856c 95be d7f3 a73d ce9b 1dbe 44c5 783e
00000170: 295d 8d3c d7ee 8a3e f893 993d c7fc f7bc
00000180: 35f7 89bd 60b8 093d 451d 01be 89fc 2c3d
00000190: 82e1 a3bd 21ad c4be a7df d4bd 328d 0ebe
000001a0: 1082 10bc ea75 9f3e ef59 af3e 15b6 58be
000001b0: 0528 13be b074 a4bd c58a 38bd 12ac 773b
000001c0: ad0c 8d3e e65c 5d3e 7386 563e 680e 55be
000001d0: b9ef fa3c 3718 3abe 3fad e63d a566 3ebd
000001e0: 17a4 973d a7c6 393e 2e1d 03bd e8d1 ccbc
000001f0: b5c7 4a3c 25db 713e 5342 07be ec94 4ebe
00000200: 4f5c 36be 70d5 573a 4844 adbd 9917 793d
00000210: b2f9 dbbd da28 0b3e b86f 7e3e 9cac 9f3e
00000220: 5a22 62be 3825 4d3d f50d 74be 6f08 b63d
00000230: 9071 5bbe fbc7 4f3e 7f7c 4cbd cd0a 99bd
00000240: 5901 2fbc ee3c 233e 95fb 58bd aec5 e63d
00000250: 1521 2f3e 5127 99bd 5a35 5e3e 2161 a93e
00000260: 61fe 0d3e bf62 373e e98b 12be 9403 59bd
00000270: 2779 37be 42c7 5cbd aaaa 4a3d 704b 91be
00000280: 7642 16bd 1b9b 983d e8a5 00be e8bc 63be
00000290: e515 a13e c9ca 583d 1a72 ccbd 0275 923d
000002a0: ad5c 1bbe 2242 bcbd 8b5b b53c 508b a33d
000002b0: dd8b 963e 17c8 203d 9733 32bd 36b1 8f3d
000002c0: c114 dfbd 5295 983e cc38 8c3d f610 34bd
000002d0: 763f 143e e663 de3d c9cc ee3d 7514 393d
000002e0: 97e0 133e 066d 743d 0107 8a3d c9a2 a7bd
000002f0: 3fc3 46bd 9f07 c8bd 74c7 85be 1bd2 003e
00000300: 9206 d0bc 7807 503d 2923 63bd 4297 b83d
00000310: e91b ae3d 12e7 87be 23b1 ec3d 740d 963d
00000320: 96f4 a9bd c6d1 98bd 74ae b93c c7e7 9d3d
00000330: acb2 b5bc ddfc 93be 73d1 b53d 163a b23e
00000340: f7c1 bd3d 98d0 ebbc 191a b7bd efaa a6be
00000350: 4413 7abd 9dbb e9bd 02ff 523b 0599 0ebe
00000360: d894 17be 4479 6dbe 5485 1cbe fc11 a83c
00000370: eb7c 673e 4cb1 c1bd 1a1b bdbe 27e9 78bc
00000380: d487 a93e db0a 363d ae49 b13d 300b e93d
00000390: 835d 28be 0757 5abe 26cb e3bd 0eb9 8dbe
000003a0: b3ac a23d 6afa 7a3d e985 80bd 2aef 1e3e
000003b0: 1e33 d13e 47ad d0be aee6 223e e016 6ebe
000003c0: 6af7 62bc 193c 99bd 69ac 483e c866 193d
000003d0: a23a 433e 126f 8bbe 5a26 6cbd 5bed 483e
000003e0: 8d02 863d 5389 2cbd ab81 e83e efe3 bebc
000003f0: 77c7 1f3d 74d1 f43c 715d e9bd f8f7 ebbd

bias f4 [10]
-0.040718287 0.04809868 -0.010247959 0.12262674 -0.0492604 -0.12622058 0.05196804 -0.05628349
0.056188714 0.08618094
00000000: 38c8 26bd 1f03 453d 0ee7 27bc ba23 fb3d
00000010: 46c5 49bd f83f 01be 71dc 543d 8489 66bd
00000020: 2326 663d a27f b03d
