Models/lenet5_958.pth (torch_old, 263896 bytes, 10 tensors)

weight f4 [6, 1, 5, 5]
0.13551325 -0.20437048 -0.23945664 -0.0044646114 -0.078781344 0.19618525 0.14498161 -0.18786435
-0.26843214 -0.25482458 0.26958847 -0.12384302 0.087576814 -0.20455313 -0.105635166 0.11721977
0.2524477 -0.012042308 -0.23282821 -0.21418425 0.2222169 0.13868532 -0.0038781867 -0.071943924
0.0068700975 -0.10438927 0.00617586 0.48508215 0.25549498 0.21599682 0.3644443 0.19854863
0.6875982 0.23386869 -0.13934276 0.58341295 0.11018015 0.37060928 0.06632742 -0.2510593
0.39494354 -0.06471993 0.112001866 -0.3737521 -0.28511515 0.13355084 0.044959698 -0.08835947
-0.47124314 -0.21924607 -0.04164357 -0.18411249 -0.22270618 0.10343053 -0.2201475 0.14634444
0.015547633 0.053446602 -0.04929715 0.1854075 0.07927756 0.03165762 0.092746474 0.16801403
0.27580434 0.1861029 -0.0670332 0.15042602 0.008404095 -0.22238444 -0.20442632 -0.0682216
0.035405908 0.11830938 -0.3015253 -0.17149453 -0.14175013 -0.069580704 -0.24735801 -0.07659105
-0.053286836 -0.19879623 -0.25125277 -0.076652825 -0.011658633 -0.01928067 -0.09646435 -0.11105174
-0.2335682 -0.1126626 -0.14247133 -0.25046703 -0.26404598 0.081985064 0.08728959 -0.28754914
-0.19087663 0.021981997 -0.08854064 0.19016777 -0.18174227 0.32639483 0.25683972 -0.097330146
-0.07228997 -0.29806808 0.034029447 0.7296114 0.08461017 -0.32968944 0.20136748 0.56201035
0.9696331 0.47826385 -0.028327923 0.02145498 0.50629205 0.5719901 0.28156203 -0.10494392
0.18224253 0.2709353 0.4085176 0.31081787 0.14243582 -0.05821466 0.014711896 0.18443502
-0.11304822 -0.042276163 0.12607968 -0.19521879 -0.1349319 0.064584255 -0.16538046 -0.2116988
-0.11397004 -0.16231185 0.008471707 -0.17460155 -0.01997413 -0.271966 -0.13923088 0.0653294
-0.16979517 -0.2622645 -0.13100839 -0.17697892 -0.06365071 0.139609
00000000: fcc3 0a3e 7f46 51be 1f34 75be e04b 92bb
00000010: 1d58 a1bd c9e4 483e 0f76 143e 835f 40be
00000020: f06f 89be 5e78 82be 8007 8a3e 69a1 fdbd
00000030: 795b b33d 6076 51be 4057 d8bd eb10 f03d
00000040: d340 813e 1a4d 45bc 856a 6ebe 1e53 5bbe
00000050: d48c 633e 8603 0e3e 2d29 7ebb 5657 93bd
00000060: 8e1e e13b 0bca d5bd de5e ca3b b05c f83e
00000070: 3dd0 823e 452e 5d3e 7198 ba3e 5550 4b3e
00000080: 7006 303f 467b 6f3e deaf 0ebe 8d5a 153f
00000090: 21a6 e13d 80c0 bd3e acd6 873d d88a 80be
000000a0: 0a36 ca3e e28b 84bd 3c61 e53d 6f5c bfbe
000000b0: 9dfa 91be 8dc1 083e a927 383d cff5 b4bd
000000c0: c846 f1be 0b82 60be 7392 2abd fc87 3cbe
000000d0: 170d 64be 63d3 d33d 596e 61be 51db 153e
000000e0: 80bb 7e3c d3ea 5a3d cfeb 49bd 77db 3d3e
000000f0: 465c a23d 6cab 013d ddf1 bd3d df0b 2c3e
00000100: 3a36 8d3e c291 3e3e b448 89bd 4709 1a3e
00000110: 54b1 093c bfb8 63be 2255 51be c4b7 8bbd
00000120: c905 113d 304c f23d 8661 9abe 439c 2fbe
00000130: f226 11be 5480 8ebd 6b4b 7dbe c5db 9cbd
00000140: 4c43 5abd 3d91 4bbe 34a4 80be 28fc 9cbd
00000150: da03 3fbc 7ff2 9dbc 1a8f c5bd 186f e3bd
00000160: 812c 6fbe a6bb e6bd 01e4 11be 373d 80be
00000170: 0931 87be c9e7 a73d e2c4 b23d a439 93be
00000180: 2a75 43be 9713 b43c cc54 b5bd 57bb 423e
00000190: a51a 3abe 391d a73e 7f80 833e 0755 c7bd
000001a0: c40c 94bd 619c 98be 7662 0b3d d0c7 3a3f
000001b0: 1948 ad3d 0ecd a8be 4733 4e3e e9df 0f3f
000001c0: e039 783f 00df f43e f60f e8bc 5bc2 af3c
000001d0: 5b9c 013f f16d 123f e628 903e d7ec d6bd
000001e0: c99d 3a3e 08b8 8a3e 3829 d13e 8523 9f3e
000001f0: b2da 113e 7f72 6ebd 2a0a 713c 89dc 3c3e
00000200: d385 e7bd c529 2dbd 081b 013e 6fe7 47be
00000210: 972b 0abe c044 843d 7f59 29be 92c7 58be
00000220: 2069 e9bd 1435 26be eacc 0a3c c0ca 32be
00000230: c9a0 a3bc 213f 8bbe 8a92 0ebe 6ccb 853d
00000240: c9de 2dbe 8847 86be 1027 06be f639 35be
00000250: 4e5b 82bd a9f5 0e3e

bias f4 [6]
-0.101931065 0.5948459 0.036411837 0.14555193 0.6668418 0.26633084
00000000: 3cc1 d0bd d247 183f 9424 153d 910b 153e
00000010: 25b6 2a3f 845c 883e

weight f4 [16, 6, 5, 5]
-0.050032705 -0.03550452 -0.060567893 -0.061354857 0.078375235 -0.087442786 -0.066974744 -0.0043957755
-0.036633525 0.009633276 0.061916705 0.04993434 -0.07280635 0.054484647 -0.05563371 0.050459694
-0.0011218761 -0.006264554 0.03280049 0.042003088 -0.036078643 0.07387872 0.044006836 0.05508927
-0.034043208 -0.044320375 0.059578422 0.14345954 -0.0064205765 -0.016553462 0.05325708 0.018347172
-0.035967693 -0.039054766 -0.052140366 -0.112073414 -0.023257015 -0.012690552 0.010343165 -0.011837328
-0.12321653 -0.049480308 -0.07615747 0.03813395 0.052849308 0.009795124 -0.08618356 -0.051122062
0.022425842 0.07383011 0.0664409 -0.07449022 0.019318042 -0.009759704 -0.074545376 -0.010594526
-0.021534052 0.003204406 -0.03611692 -0.08422447 0.0002563907 -0.057103056 -0.07894283 -0.045922555
-0.028779246 -0.059601974 -0.06581407 -0.05292298 -0.06482759 -0.013427381 -0.059054956 -0.09017136
-0.018845294 -0.081320874 0.0610171 -0.017885556 0.04940367 0.09511872 0.07409553 0.06908147
0.110043295 0.07276295 0.11009472 -0.017684517 0.07179564 0.11134672 0.016653975 0.0060311942
0.04621321 0.0675745 0.12931752 0.004635328 0.040187985 4.4896595e-05 0.037356377 -0.008364762
0.11996883 0.03849316 0.101296544 0.07879908 -0.032431904 0.039675176 0.10625377 0.033179972
-0.034157924 -0.0137258945 -0.0488794 -0.09277215 -0.07357797 -0.090042375 -0.025686719 -0.12771451
-0.117036186 0.034178272 -0.010519601 -0.091252804 -0.06964525 -0.01890501 0.08366658 -0.019375771
-0.10807727 -0.13415028 0.04664998 0.11495664 -0.084424615 0.033516303 0.014738694 0.08180103
0.06852481 0.0045172637 0.07288811 -0.01569466 0.08388076 0.117966436 0.101597965 0.052625455
0.09684754 0.04511366 0.11349503 -0.026878458 0.026894437 -0.023812825 0.089286625 -0.012031082
-0.0013939582 0.07468255 0.029966308 0.09167087 -0.034217082 -0.0043504387 -0.029590748 0.0030395808
-0.02164475 -0.050695386 0.05093977 -0.02229471 0.07972309 0.07177015 0.027429126 -0.03852857
-0.014373994 0.01171226 0.10618385 -0.016336586 -0.09471993 0.06295523 0.048932686 -0.054291293
-0.059281252 0.05434757 0.053107817 0.058287475 -0.06285817 -0.028397135 0.031508114 0.0725137
0.08350254 0.13809022 -0.0029948566 -0.11592121 0.068525754 0.20365249 0.18247244 -0.044972375
-0.11293452 0.11157586 0.16586939 0.089343145 -0.20233443 -0.1834325 0.033199444 0.19036902
-0.16926992 -0.2343256 0.04501921 0.0859348 0.08312899 -0.2052531 0.02581525 0.075072646
0.074217156 -0.06656415 0.04176953 0.03338859 -0.03437047 0.016932275 0.08523463 -0.06039504
-0.085126095 -0.031097 0.06142749 -0.023851514 -0.04148478 0.021010663 -0.09120299 0.0108884275
0.007016273 0.030879306 -0.00061882153 0.021881443 0.022933425 -0.04906895 -0.07635515 0.0835229
0.00023370566 -0.015250121 -0.0968634 -0.019671842 0.018076057 0.049890935 -0.06305509 -0.012812869
-0.059131023 0.105763644 0.032937694 -0.0403958 0.013838494 0.07343643 0.11777478 -0.013442567
0.0013626568 0.011278751 0.027039036 0.061166644 -0.037861995 -0.119149625 -0.05518458 0.08435841
0.0058777584 0.05236002 0.119911335 0.09147806 0.064867266 -0.11648196 -0.19164231 0.10578474
00000000: 18ef 4cbd 306d 11bd 0a16 78bd 3b4f 7bbd
00000010: 3283 a03d 3415 b3bd 0e2a 89bd 700a 90bb
00000020: 090d 16bd e3d4 1d3c 5f9c 7d3d f387 4c3d
00000030: 7f1b 95bd 4b2b 5f3d 2ce0 63bd d3ae 4e3d
00000040: ea0b 93ba e346 cdbb ce59 063d 6e0b 2c3d
00000050: 33c7 13bd ba4d 973d 8340 343d 49a5 613d
00000060: e470 0bbd 4889 35bd 8108 743d 0fe7 123e
00000070: b363 d2bb 209b 87bc 1924 5a3d cf4c 963c
00000080: dc52 13bd e4f7 1fbd 2391 55bd bf86 e5bd
00000090: 7f85 bebc 08ec 4fbc 6176 293c 5af1 41bc
000000a0: f358 fcbd ddab 4abd 73f8 9bbd 5832 1c3d
000000b0: 8478 583d ba7b 203c 0281 b0bd 5e65 51bd
000000c0: 66b6 b73c 3e34 973d 2b12 883d 548e 98bd
000000d0: df40 9e3c 2ae7 1fbc 3fab 98bd aa94 2dbc
000000e0: 2e68 b0bc 0301 523b 56ef 13bd e17d acbd
000000f0: 2d6c 8639 e5e4 69bd c7ac a1bd 4a19 3cbd
00000100: 74c2 ebbc 3321 74bd 87c9 86bd c4c5 58bd
00000110: 54c4 84bd 85fe 5bbc 9ce3 71bd c3ab b8bd
00000120: 7261 9abc 8f8b a6bd 11ed 793d bb84 92bc
00000130: 815b 4a3d 9acd c23d 66bf 973d 967a 8d3d
00000140: 615e e13d be04 953d 5779 e13d 1fdf 90bc
00000150: 9809 933d c009 e43d eb6d 883c 53a1 c53b
00000160: 104a 3d3d 8064 8a3d d06b 043e f3e3 973b
00000170: 289c 243d 5a4f 3c38 0003 193d 5b0c 09bc
00000180: 38b2 f53d 01ab 1d3d 9074 cf3d 6961 a13d
00000190: 51d7 04bd 7082 223d 949b d93d b9e7 073d
000001a0: 2ee9 0bbd 93e2 60bc c435 48bd 53ff bdbd
000001b0: 0cb0 96bd 2368 b8bd f46c d2bc 98c7 02be
000001c0: abb0 efbd 84fe 0b3d 685a 2cbc c0e2 babd
000001d0: 2ba2 8ebd aede 9abc 6259 ab3d f0b9 9ebc
000001e0: 9e57 ddbd b15e 09be 0d14 3f3d 636e eb3d
000001f0: d0e6 acbd 6448 093d 907a 713c 4c87 a73d
00000200: bc56 8c3d 8e05 943b 5d46 953d 1692 80bc
00000210: adc9 ab3d 6398 f13d 9812 d03d ca8d 573d
00000220: 0158 c63d 1ac9 383d 1570 e83d 3630 dcbc
00000230: b951 dc3c 1d13 c3bc e8db b63d 041e 45bc
00000240: 7ab5 b6ba 2af3 983d e77b f53c f0bd bb3d
00000250: 3627 0cbd 208e 8ebb 4c68 f2bc b433 473b
00000260: 5550 b1bc f7a5 4fbd 38a6 503d 65a3 b6bc
00000270: dc45 a33d 3afc 923d 0cb3 e03c 22d0 1dbd
00000280: e780 6bbc c7e4 3f3c eb76 d93d 4ed4 85bc
00000290: 86fc c1bd acee 803d a46d 483d 8c60 5ebd
000002a0: e6d0 72bd 8f9b 5e3d 9587 593d d9be 6e3d
000002b0: c9bb 80bd 1ca1 e8bc a70e 013d 1082 943d
000002c0: 6103 ab3d 8667 0d3e 5b45 44bb 1968 edbd
000002d0: 3b57 8c3d 478a 503e 0eda 3a3e f434 38bd
000002e0: 374a e7bd e281 e43d aad9 293e 8af9 b63d
000002f0: c230 4fbe bbd5 3bbe 24fc 073d 19f0 423e
00000300: 1855 2dbe 0df3 6fbe 1066 383d 96fe af3d
00000310: 883f aa3d de2d 52be 817a d33c b0bf 993d
00000320: 2aff 973d c952 88bd 8716 2b3d 79c2 083d
00000330: 0dc8 0cbd 8eb5 8a3c 7e8f ae3d ca60 77bd
00000340: 9756 aebd 23bf febc 649b 7b3d 4064 c3bc
00000350: f2eb 29bd 8e1e ac3c a2c8 babd 6065 323c
00000360: c4e8 e53b 99f6 fc3c 6938 22ba b640 b33c
00000370: e1de bb3c 86fc 48bd 1760 9cbd 0e0e ab3d
00000380: e30e 7539 a5db 79bc 5160 c6bd d826 a1bc
00000390: 3d14 943c 705a 4c3d 0723 81bd 11ed 51bc
000003a0: 5f33 72bd 9c9a d83d ade9 063d 1176 25bd
000003b0: daba 623c d765 963d e733 f13d 363e 5cbc
000003c0: 2d9b b23a 83ca 383c f880 dd3c e089 7a3d
000003d0: 2e15 1bbd b804 f4bd 3a09 62bd 1ac4 ac3d
000003e0: 369a c03b 7677 563d 1394 f53d d958 bb3d
000003f0: 21d9 843d 188e eebd e23d 44be aba5 d83d

bias f4 [16]
-0.00113262 0.0028432691 0.0672392 -0.06931738 -0.053708587 -0.019323356 0.09375299 -0.016922183
-0.034567073 0.0019779773 -0.0344139 0.10040534 0.04488577 0.030474124 0.0146553125 0.0087903375
00000000: 6c74 94ba 2456 3a3b b5b4 893d 45f6 8dbd
00000010: 89fd 5bbd 044c 9ebc 9101 c03d 64a0 8abc
00000020: 3496 0dbd f4a0 013b 97f5 0cbd 51a1 cd3d
00000030: 24da 373d dfa4 f93c d61c 703c 5905 103c

weight f4 [120, 400]
0.015897317 -0.02164645 -0.044594597 0.03285171 0.04347981 0.0402753 -0.032958232 0.035073254
-0.0069241966 0.019412015 -0.042782843 0.026711369 0.01575582 0.019564213 0.032928865 0.0031548238
-0.029942099 -0.014026974 0.027684331 0.008701673 -0.021980561 0.036363814 0.024493298 0.026800249
0.050340142 -0.029010624 0.016086306 0.002835515 -0.045045182 -0.01578101 0.047520652 -0.029060287
-0.0053475406 -0.026741954 0.036665082 0.04503426 -0.033878054 -0.00830087 0.0043640174 -0.032452844
0.04481359 0.0033169715 0.03323396 -0.0016041005 -0.036438506 0.00973718 0.0076867705 -0.038228374
0.032309264 -0.016040703 0.03955633 -0.03598308 0.028818516 -0.04138766 0.042838026 0.044530313
-0.023463087 -0.043785036 0.029062169 0.022929316 -0.032803368 -0.012072173 0.031279102 -0.04176331
-0.013169907 -0.041931313 -0.012790151 -0.012863937 0.019265894 0.017753204 -0.03403074 0.044192143
0.036288016 -0.0033234286 0.03581452 0.004350466 0.018248128 -0.011487633 0.04594547 0.009548899
-0.044513572 -0.010052304 -0.020376071 0.047489237 0.027477587 0.021429295 0.019879786 0.0053255
-0.025273163 -0.010620369 0.0492265 0.019511161 -0.0053052404 0.005434014 0.024173424 0.027593005
-0.026685623 -0.016590737 0.021298338 0.042978603 0.026015181 0.01949206 -0.033688016 -0.04419911
0.041964415 -0.020799125 -0.01602739 -0.040829297 0.044863597 0.024621313 -0.008520628 0.029040921
0.03078316 0.04123184 -0.0021268502 -0.046201684 0.025512643 0.013304091 -0.041589577 0.02340333
-0.015415222 -0.012239713 -0.030133802 0.017502034 -0.0119894175 0.048227023 0.008581728 -0.033260148
-0.022806764 -0.028339798 -0.0091924565 0.031149253 -0.023636071 0.020162141 0.0032270236 0.044725716
-0.018477153 0.025402041 0.046772603 -0.0055147577 -0.01251297 -0.00042654498 0.042556673 0.038469825
0.005198373 0.024047708 0.035721615 -0.034992557 0.014978419 0.009298989 -0.028049339 0.003795813
-0.015760226 -0.03639237 0.032215193 -0.038308866 0.03503709 -0.014966194 0.03021642 0.03666071
0.0408472 -0.029210206 -0.019928899 -0.007959678 -0.042724088 0.027109737 -0.034372274 0.0070188018
-0.038521882 0.05338439 0.056108184 0.008145362 -0.0011942618 -0.031089757 0.022525301 0.015041022
-0.00845728 -0.03161333 0.00768909 0.042583205 -0.029419215 -0.013566185 -0.024153123 -0.01670019
-0.04760502 -0.050378386 0.004598436 0.049948465 -0.035048597 -0.013546671 -0.02369104 -0.008042542
0.0020742721 0.008834289 -0.012270182 -0.036045086 0.04305402 -0.038037803 -0.00851526 0.020980252
-0.012477868 0.01873514 0.010311398 -0.035961404 0.0056978255 -0.019949635 -0.00070662715 0.0036918886
-0.00057958544 0.023085354 0.024337534 -0.034261066 0.007022556 -0.009109014 -0.011165802 -0.018946495
-0.029930605 0.015696008 0.028118182 -0.014200114 -0.014377275 0.009497377 -0.026618084 -0.04573103
0.02227978 -0.00018131058 0.03406225 -0.030484427 0.037052095 -0.0055485093 -0.009072069 -0.033855207
-0.024954874 -0.048961982 -0.046720322 0.01657067 -0.038965248 -0.005801721 -0.036648538 -0.041389313
0.038758222 0.0388784 -0.020497965 0.041272227 0.0135200415 0.042824406 -0.031167638 0.045932777
-0.006316055 -0.045938775 0.04390655 0.02852832 0.032458577 -0.0032857624 -0.0240548 0.040552545
00000000: 173b 823c e553 b1bc d3a8 36bd 848f 063d
00000010: e317 323d b7f7 243d 36ff 06bd f9a8 0f3d
00000020: 5fe4 e2bb f205 9f3c 103d 2fbd cdd1 da3c
00000030: 5912 813c 2145 a03c 6be0 063d 29c1 4e3b
00000040: 2249 f5bc 65d1 65bc 40ca e23c 7691 0e3c
00000050: 9410 b4bc 39f2 143d 2ba6 c83c 328c db3c
00000060: 7731 4e3d b0a7 edbc 6ec7 833c 0cd4 393b
00000070: 4c81 38bd 2d47 81bc 04a5 423d d70f eebc
00000080: 6c3a afbb f111 dbbc 202e 163d d875 383d
00000090: b7c3 0abd 5f00 08bc 0800 8f3b 46ed 04bd
000000a0: 748e 373d 8c61 593b 5520 083d ae40 d2ba
000000b0: 8b40 15bd b188 1f3c 4ee1 fb3b 5b95 1cbd
000000c0: b856 043d cb67 83bc d105 223d fe62 13bd
000000d0: cf14 ec3c 1b86 29bd ed76 2f3d 6b65 363d
000000e0: a935 c0bc f057 33bd c913 ee3c 43d6 bb3c
000000f0: d35c 06bd 5dca 45bc 841e 003d 0110 2bbd
00000100: 98c6 57bc 2bc0 2bbd c88d 51bc 43c3 52bc
00000110: 82d3 9d3c 2b6f 913c d163 0bbd d202 353d
00000120: bea2 143d e1cd 59bb 3fb2 123d 5b8e 8e3b
00000130: 197d 953c a036 3cbc 5131 3c3d fc72 1c3c
00000140: dd53 36bd 6bb2 24bc b8eb a6bc 1384 423d
00000150: ad18 e13c 7d8c af3c efda a23c 8881 ae3b
00000160: aa09 cfbc 0e01 2ebc baa1 493d dfd5 9f3c
00000170: 95d7 adbb d00f b23b 5807 c63c ba0a e23c
00000180: cf9b dabc 4ce9 87bc da79 ae3c 550a 303d
00000190: ca1d d53c d0ad 9f3c 72fc 09bd 200a 35bd
000001a0: e1e2 2b3d ed62 aabc df4b 83bc 9f3c 27bd
000001b0: e4c2 373d a3b2 c93c 1b9a 0bbc 3ae7 ed3c
000001c0: f72c fc3c b8e2 283d a062 0bbb fa3d 3dbd
000001d0: e4ff d03c 67f9 593c d559 2abd 57b8 bf3c
000001e0: 2190 7cbc 1489 48bc 2adb f6bc 6d60 8f3c
000001f0: 436f 44bc b389 453d 609a 0c3c cb3b 08bd
00000200: 40d5 babc dd28 e8bc f59b 16bc b82c ff3c
00000210: 6fa0 c1bc 132b a53c 797c 533b 5032 373d
00000220: 665d 97bc f117 d03c a194 3f3d 24b5 b4bb
00000230: 3303 4dbc e6a1 dfb9 e84f 2e3d 8992 1d3d
00000240: 1d57 aa3b b3ff c43c d450 123d 5b54 0fbd
00000250: 0b68 753c c95a 183c bac7 e5bc 2dc3 783b
00000260: 971b 81bc 2a10 15bd 14f4 033d c2e9 1cbd
00000270: 0d83 0f3d c434 75bc 6d88 f73c 8a29 163d
00000280: 654f 273d 3e4a efbc ee41 a3bc 4f69 02bc
00000290: 74ff 2ebd 3d15 de3c f1c9 0cbd fafd e53b
000002a0: 1fc9 1dbd 97a9 5a3d b2d1 653d 2074 053c
000002b0: c788 9cba f2af febc fb86 b83c 9e6e 763c
000002c0: 6790 0abc fb7c 01bd c3f4 fb3b ba6b 2e3d
000002d0: 9100 f1bc b444 5ebc c5dc c5bc d6ce 88bc
000002e0: 7bfd 42bd 9159 4ebd 7aae 963b c396 4c3d
000002f0: 1e8f 0fbd dbf2 5dbc b613 c2bc dec4 03bc
00000300: 83f0 073b b2bd 103c e008 49bc 03a4 13bd
00000310: 6959 303d 87cd 1bbd 9783 0bbc c7de ab3c
00000320: f96f 4cbc 707a 993c 23f1 283c 444c 13bd
00000330: d3b4 ba3b 6b6d a3bc f23c 39ba 9df3 713b
00000340: 52ef 17ba 7f1d bd3c 825f c73c 5555 0cbd
00000350: 781d e63b f93d 15bc c5f0 36bc ae35 9bbc
00000360: 0731 f5bc ea94 803c 1a58 e63c 98a7 68bc
00000370: a98e 6bbc e39a 1b3c 2b0e dabc 7650 3bbd
00000380: 1684 b63c 301e 3eb9 dc84 0b3d 7aba f9bc
00000390: f0c3 173d 45d0 b5bb 04a3 14bc c2ab 0abd
000003a0: 2a6e ccbc 5c8c 48bd cf5d 3fbd 37bf 873c
000003b0: 069a 1fbd 5d1c bebb c71c 16bd d787 29bd
000003c0: f1c0 1e3d f53e 1f3d 59eb a7bc 110d 293d
000003d0: 2a83 5d3c a568 2f3d 4653 ffbc 0224 3c3d
000003e0: e9f6 cebb 4c2a 3cbd 5bd7 333d 39b4 e93c
000003f0: 49f3 043d f255 57bb 920e c5bc 6d1a 263d

bias f4 [120]
-0.020592572 0.020107578 0.019601386 -0.036497667 0.020444015 0.024366722 0.019426972 0.00966034
0.027314376 -0.013411458 0.03714792 0.0077917743 0.039555427 -0.01685232 0.0043188985 -0.019859456
0.0558052 0.0331799 0.021189231 0.04584413 -0.024944087 -0.0026730692 0.04014311 0.042153165
0.021316413 -0.041668322 0.022657862 0.051469427 -0.015181032 -0.036478028 -0.02020443 -0.028656598
0.0076478096 -0.009987753 0.026464516 -0.015281344 0.01090444 -0.03267251 -0.009037963 -0.017957848
-0.021054294 0.047763404 0.021639623 0.027853187 -0.002736388 0.026282312 0.019755803 0.03703636
-0.045497492 0.03441301 0.0031468985 0.0434156 0.019083021 -0.040793892 0.015352628 0.017720457
0.045685787 0.01101787 -0.02558507 0.0049692933 -0.008718884 0.023873283 -0.044687845 -0.029598776
-0.023592796 -0.038474105 0.055178113 -0.0024554357 0.0496507 -0.021740995 -0.024621224 -0.016621016
-0.038296644 -0.02913945 0.019318419 -0.021022325 0.029225431 -0.038127262 0.042141847 -0.03762571
-0.03148147 0.038983516 -0.03596511 0.010825946 0.02792193 0.03662408 0.040241245 -0.0073056254
-0.03678606 0.001501463 0.029303584 0.0042407736 0.05228739 0.03075787 -0.0019119222 -0.016652847
-0.03913364 -0.02877445 0.031007536 -0.014290566 -0.01623216 -0.021057708 0.016853632 -0.020361241
0.014331032 0.044052657 0.038239695 -0.028910598 0.053478282 -0.011246983 0.007581873 0.05855679
-0.030247772 0.010362468 -0.01597956 -0.029391086 -0.011358077 0.027874047 0.006173566 0.026109777
00000000: c1b1 a8bc a6b8 a43c 1693 a03c 947e 15bd
00000010: 357a a73c b89c c73c 5025 9f3c 6746 1e3c
00000020: 66c2 df3c bbbb 5bbc 6b28 183d 2452 ff3b
00000030: df04 223d e00d 8abc 8c85 8d3b 4cb0 a2bc
00000040: fe93 643d a6e7 073d 0a95 ad3c 0ec7 3b3d
00000050: 8b57 ccbc a92e 2fbb 1a6d 243d cca8 2c3d
00000060: c29f ae3c 67ac 2abd fb9c b93c 9bd1 523d
00000070: ddb9 78bc fc69 15bd c383 a5bc 3ec1 eabc
00000080: 7a9a fa3b aca3 23bc 1dcc d83c 9a5e 7abc
00000090: 89a8 323c 9cd3 05bd f713 14bc 561c 93bc
000000a0: 0e7a acbc 8fa3 433d 9445 b13c 5e2c e43c
000000b0: f954 33bb 014e d73c ecd6 a13c 70b3 173d
000000c0: 945b 3abd a8f4 0c3d 323c 4e3b 8ed4 313d
000000d0: ff53 9c3c 7f17 27bd 9789 7b3c 7e2a 913c
000000e0: 0521 3b3d 4c84 343c c897 d1bc 74d5 a23b
000000f0: a6d9 0ebc e791 c33c 9a0a 37bd 2279 f2bc
00000100: ae45 c1bc 0697 1dbd 7202 623d 60eb 20bb
00000110: 885e 4b3d 2c1a b2bc 73b2 c9bc cc28 88bc
00000120: f1dc 1cbd dbb5 eebc a941 9e3c 0337 acbc
00000130: 2c6a ef3c 552b 1cbd ee9c 2c3d 6b1d 1abd
00000140: b7f2 00bd 2ead 1f3d 2750 13bd 4f5f 313c
00000150: 88bc e43c 2203 163d 01d4 243d 0764 efbb
00000160: fbac 16bd bdcc c43a 120e f03c 30f6 8a3b
00000170: 4d2b 563d eef7 fb3c 7799 faba 8d6b 88bc
00000180: 984a 20bd 65b8 ebbc 8403 fe3c fa22 6abc
00000190: 4ff9 84bc 3781 acbc a110 8a3c 9ecc a6bc
000001a0: b4cc 6a3c 8f70 343d 3aa1 1c3d ebd5 ecbc
000001b0: 0b0c 5b3d 4445 38bc 5c71 f83b 3fd9 6f3d
000001c0: 2dca f7bc 57c7 293c 91e7 82bc 93c5 f0bc
000001d0: 3a17 3abc 1d58 e43c a04b ca3b 2ce4 d53c

weight f4 [84, 120]
0.012515039 -0.11582075 -0.033445902 -0.031543978 0.052318264 0.06060778 0.033017658 -0.07416048
-0.04214424 0.08109406 -0.05993133 0.021403346 0.019353798 0.018027311 -0.057485055 -0.033397157
0.04999754 0.0030322846 -0.009722773 0.09690189 -0.08868937 0.04304311 -0.03893933 -0.09500972
0.06268336 -0.030692 0.038274325 0.06440421 -0.08786153 -0.04567459 0.06978712 0.09186638
-0.050535817 0.069182 -0.042148978 -0.094810404 0.07922115 -0.09019738 -0.030539695 0.066310875
-0.07745583 0.11943977 -0.038734175 0.018987866 -0.047941286 0.017464392 0.010469214 -0.015542263
0.05566539 0.0304364 0.098801665 0.0020224592 -0.039916586 0.007933579 0.0903058 -0.09798246
0.01056844 -0.107037455 0.13564497 -0.10294428 -0.06461227 -0.010676366 -0.093396336 -0.076578386
-0.013779021 -0.04979842 0.029541397 -0.035561334 -0.030327892 -0.04236672 -0.09706653 0.06784678
-0.102147296 -0.033415556 -0.08830678 0.039404918 0.0749029 0.00968466 -0.036357183 -0.006514411
-0.006007805 0.086814284 0.010653157 0.061540216 -0.08296682 0.005474284 0.04713547 0.0364319
0.02490896 0.14473937 -0.07375002 0.004456166 -0.035380457 0.00733334 0.13653451 -0.0068683573
-0.016198361 0.04390948 0.08373476 -0.044553675 -0.0031892196 -0.049503643 -0.050354596 -0.06141704
-0.09001944 0.052312423 -0.028266814 0.060418643 0.086214006 0.022479925 0.07358846 0.0040419158
0.050006155 -0.056004856 0.06045186 0.010277673 -0.09228106 0.02945983 -0.060180455 -0.060734402
0.040786628 -0.05700565 0.039091565 0.017041415 -0.010118275 0.010566899 -0.13547257 0.0750111
0.060791098 -0.032546654 0.009635898 -0.046363987 -0.020639136 -0.0032771819 -0.09489712 0.066152275
0.06769152 0.024399484 -0.049127888 -0.027427452 0.09994265 -0.05159859 -0.0237143 0.040117603
-0.1256487 -0.057571165 0.07399872 0.15852743 -0.022034803 -0.10848302 -0.04891471 -0.00033432702
0.017086798 -0.036015093 -0.16050497 0.093712054 -0.07987698 -0.032509822 -0.0012333788 -0.048230916
-0.046454344 0.014380263 0.00097036426 -0.02955093 -0.028163685 -0.077610254 0.09579229 -0.029230753
-0.067860976 0.020687068 0.022456152 -0.08266536 0.08522964 -0.08440266 -0.03649339 -0.072608046
0.11058371 0.0943522 0.081987195 -0.01760978 0.093451805 -0.04937167 0.042260136 0.031161483
0.021151775 0.026860535 0.021866852 0.06539872 0.030979196 0.024620285 -0.0964064 0.0022991474
-0.10810312 0.03206672 -0.06421393 0.006908811 0.10916722 0.051040705 -0.07649208 -0.047358666
-0.05768574 -0.02730811 -0.09383189 -0.03872561 -0.061015405 0.09493655 0.061695136 0.008853551
0.037791945 -0.05830959 -0.033181548 -0.0019056649 0.028070137 -0.059213594 -0.10064451 0.101582736
-0.05224766 0.034357607 0.0030667903 0.0890848 0.04711458 -0.0868325 0.03132445 -0.06350996
-0.024773687 0.05246057 -0.01566961 0.0124204345 0.038721234 0.059512865 -0.014015189 0.09614245
0.08840221 -0.064774744 -0.05743162 -0.061215214 0.05771444 -0.07957065 0.03844053 0.03531258
-0.01617742 -0.031021267 -0.08003796 0.021301977 -0.04235006 -0.08293908 0.03701108 0.0647154
0.098871626 0.03821467 -0.09535053 0.072991066 0.0664442 -0.010894378 0.07331492 0.07037695
00000000: e10b 4d3c 6e33 edbd 92fe 08bd 4234 01bd
00000010: ad4b 563d dd3f 783d 863d 073d 73e1 97bd
00000020: 709f 2cbd a414 a63d 8e7a 75bd 1256 af3c
00000030: db8b 9e3c 03ae 933c 7375 6bbd 75cb 08bd
00000040: 38ca 4c3d 4bb9 463b 444c 1fbc 8074 c63d
00000050: c6a2 b5bd f94d 303d d97e 1fbd 7594 c2bd
00000060: 2260 803d ca6d fbbc 8ac5 1c3d 5be6 833d
00000070: bff0 b3bd 4715 3bbd 8dec 8e3d 7124 bc3d
00000080: a5fe 4ebd 4baf 8d3d 68a4 2cbd f52b c2bd
00000090: b33e a23d 67b9 b8bd 622e fabc ffcd 873d
000000a0: 2aa1 9ebd d79c f43d baa7 1ebd 718c 9b3c
000000b0: 155e 44bd 7c11 8f3c 1187 2b3c faa4 7ebc
000000c0: 6401 643d c255 f93c 8758 ca3d 3c8b 043b
000000d0: 937f 23bd d8fb 013c 3ff2 b83d 07ab c8bd
000000e0: 4027 2d3c 7436 dbbd 84e6 0a3e 73d4 d2bd
000000f0: 7053 84bd edeb 2ebc 9446 bfbd 21d5 9cbd
00000100: 67c1 61bc 6ef9 4bbd cd00 f23c c3a8 11bd
00000110: 3372 f8bc ba88 2dbd d1ca c6bd 41f3 8a3d
00000120: 9a32 d1bd c0de 08bd 2fda b4bd 0d67 213d
00000130: b166 993d 68ac 1e3c 45eb 14bd d776 d5bb
00000140: 1fdd c4bb b0cb b13d 948a 2e3c 9811 7c3d
00000150: 82ea a9bd 9f61 b33b 1f11 413d 9e39 153d
00000160: e00d cc3c 8f36 143e 400a 97bd 0805 923b
00000170: 19eb 10bd 844c f03b b4cf 0b3e f50f e1bb
00000180: 6db2 84bc 6dda 333d 217d ab3d ea7d 36bd
00000190: 3a02 51bb 55c4 4abd 9f40 4ebd 6f90 7bbd
000001a0: 1d5c b8bd 8d45 563d ce8f e7bc 8a79 773d
000001b0: f890 b03d d227 b83c 8cb5 963d 0c72 843b
000001c0: 41d3 4c3d 5965 65bd 5f9c 773d af63 283c
000001d0: dafd bcbd be55 f13c c87f 76bd a3c4 78bd
000001e0: e10f 273d c27e 69bd 7a1e 203d 709a 8b3c
000001f0: 1fc7 25bc c920 2d3c 52b9 0abe 6b9f 993d
00000200: 1600 793d a44f 05bd e3df 1d3c 2ae8 3dbd
00000210: 6813 a9bc fdc5 56bb 6c59 c2bd d87a 873d
00000220: daa1 8a3d 6de1 c73c 533a 49bd 89af e0bc
00000230: bbae cc3d 0b59 53bd 7e44 c2bc 5b52 243d
00000240: 0eaa 00be becf 6bbd a48c 973d 0455 223e
00000250: 5582 b4bc 582c debd ca5a 48bd 9d48 afb9
00000260: 9df9 8b3c 9084 13bd 6a5b 24be 1bec bf3d
00000270: 8b96 a3bd 0529 05bd 53a9 a1ba c88d 45bd
00000280: e946 3ebd 329b 6b3c 0b60 7e3a cb14 f2bc
00000290: 87b7 e6bc 20f2 9ebd c02e c43d 5575 efbc
000002a0: b2fa 8abd ed77 a93c f7f5 b73c 754c a9bd
000002b0: e18c ae3d 4ddb acbd 187a 15bd 87b3 94bd
000002c0: b679 e23d ba3b c13d e7e8 a73d 6342 90bc
000002d0: a963 bf3d f339 4abd f718 2d3d 5e46 ff3c
000002e0: 7d46 ad3c a00a dc3c 1d22 b33c c4ef 853d
000002f0: 15c8 fd3c 7bb0 c93c b870 c5bd 4bad 163b
00000300: 2b65 ddbd 6558 033d 9882 83bd 4f63 e23b
00000310: 1093 df3d 0f10 513d e1a7 9cbd 29fb 41bd
00000320: e247 6cbd 42b5 dfbc ef2a c0bd bf9e 1ebd
00000330: 4aeb 79bd 186e c23d 0ab4 7c3d 7c0e 113c
00000340: bacb 1a3d 09d6 6ebd 60e9 07bd 81c7 f9ba
00000350: 58f3 e53c f489 72bd b51e cebd 9c0a d03d
00000360: a401 56bd 90ba 0c3d 34fc 483b 1772 b63d
00000370: 38fb 403d 3dd5 b1bd 114e 003d 8311 82bd
00000380: 30f2 cabc e5e0 563d 8e5d 80bc 147f 4b3c
00000390: 289a 1e3d c3c3 733d f79f 65bc 55e6 c43d
000003a0: 380c b53d 9fa8 84bd 6b3d 6bbd cebc 7abd
000003b0: fa65 6c3d f0f5 a2bd d173 1d3d eda3 103d
000003c0: 8286 84bc 5020 febc f1ea a3bd 7c81 ae3c
000003d0: 4277 2dbd f7db a9bd ee98 173d 8289 843d
000003e0: 357d ca3d fc86 1c3d 2447 c3bd 577c 953d
000003f0: e613 883d 557e 32bc 2226 963d ca21 903d

bias f4 [84]
0.037700526 -0.06711087 -0.06257088 0.07995997 0.0026131268 0.026406381 0.01355218 0.024715206
0.023291687 -0.07350947 0.067503415 -0.01436287 -0.007903324 -0.08611062 0.031070272 0.013048912
0.011711992 -0.06941228 -0.04401132 0.079221435 2.5333864e-05 -0.07921651 0.014057999 -0.062170457
-0.05412723 0.06472382 -0.04412772 -0.0070906673 -0.023315696 0.055344902 -0.04750372 0.0060881884
0.02186774 0.056359667 -0.08106712 -0.0833525 -0.08968896 -0.0065320064 0.061178833 0.01782478
-0.03384986 0.025612053 -0.00032440753 0.0703737 0.050210375 0.10606898 0.10547546 0.0923502
-0.02840129 -0.06321671 0.050380614 -0.020004313 0.021958277 0.021049298 0.08598787 -0.008597466
-0.02231074 0.07762984 -0.0688078 0.0030104353 -0.06645653 -0.09689599 -0.023868995 0.07083327
-0.08118113 -0.068450615 0.08914365 0.060171712 -0.008025175 0.057334077 0.07443885 0.009794609
-0.026583482 0.09010599 0.00069303135 0.025977874 -0.05171511 -0.055361446 0.072543494 -0.017894376
0.011825253 -0.085286416 -0.013520195 0.06162199
00000000: de6b 1a3d 6c71 89bd 2925 80bd 0ec2 a33d
00000010: fe40 2b3b 3252 d83c f609 5e3c 8b77 ca3c
00000020: 35ce be3c 228c 96bd 3b3f 8a3d 3e52 6bbc
00000030: f27c 01bc c45a b0bd 1587 fe3c 1bcb 553c
00000040: a8e3 3f3c 0728 8ebd 3745 34bd d93e a23d
00000050: 0f84 d437 443c a2bd 8553 663c 73a6 7ebd
00000060: 84b4 5dbd ec8d 843d 45bf 34bd d458 e8bb
00000070: 8f00 bfbc 56b1 623d 4393 42bd 6d7f c73b
00000080: fa23 b33c 65d9 663d 8506 a6bd b7b4 aabd
00000090: d8ae b7bd 710a d6bb a896 7a3d 4605 923c
000000a0: 27a6 0abd 5ed0 d13c 3e15 aab9 1620 903d
000000b0: 65a9 4d3d b23a d93d 8503 d83d 1a22 bd3d
000000c0: d2a9 e8bc c377 81bd e75b 4e3d 16e0 a3bc
000000d0: d8e1 b33c 946f ac3c 691a b03d 63dc 0cbc
000000e0: 03c5 b6bc 65fc 9e3d 1beb 8cbd b94a 453b
000000f0: 5c1a 88bd 6871 c6bd e988 c3bc 0911 913d
00000100: 4b42 a6bd d62f 8cbd f290 b63d 9d76 763d
00000110: 067c 03bc 23d7 6a3d 6573 983d 9179 203c
00000120: 9ac5 d9bc 7d89 b83d 8cac 353a 8dcf d43c
00000130: 39d3 53bd afc2 62bd af91 943d 3a97 92bc
00000140: b5be 413c a5aa aebd cf83 5dbc 5767 7c3d

weight f4 [10, 84]
-0.02112799 0.07356765 0.043912064 -0.004354448 0.09116047 -0.07833139 -0.08286493 -0.14798717
-0.18058239 0.15981948 -0.07265608 -0.11158144 -0.09881025 0.2580709 0.036184397 -0.024449874
-0.21264915 -0.026930388 -0.15862544 -0.050057665 0.04153744 0.056617614 -0.061134495 0.008422072
-0.26842526 0.09273263 0.06538634 -0.032277517 0.10927542 0.05421743 -0.06750825 -0.05528777
0.102852955 0.038826767 -0.13385285 -0.009403532 0.012821756 -0.06313771 -0.031480767 0.08230397
-0.08602499 -0.088496715 -0.078141175 -0.017126612 0.18564792 0.067463785 -0.22554949 0.07557084
-0.02771075 0.08162657 0.048887324 -0.10713859 0.07242892 0.08344744 0.17360185 0.042288367
0.021754676 -0.23337524 -0.10022923 -0.033228412 -0.021496838 0.04152231 -0.07468704 0.11869572
0.096009016 0.071631126 0.13320269 -0.019133972 -0.0805636 0.22932504 -0.11373393 -0.04505808
0.032622643 0.042727686 -0.232755 -0.11034997 -0.02031068 -0.048367225 -0.0013831398 0.17091031
-0.11528555 0.055803712 -0.06329732 0.23173453 0.12393406 0.033132367 -0.13533226 0.09955895
0.047236767 -0.14614311 -0.15364304 -0.0508044 -0.13530222 -0.0065572932 -0.061793257 -0.14441197
0.05485542 -0.119890176 0.08308387 0.0011562841 0.21330452 -0.009646017 -0.15483843 -0.012276987
-0.014542157 0.28160396 0.058131292 -0.13851306 -0.06657793 -0.076080374 0.03238554 0.028519543
0.034382485 0.018309483 -0.132729 -0.04986123 0.08030487 -0.27322197 0.0025994866 -0.107713
0.0836074 0.01854877 0.34838736 0.036915433 -0.14574987 0.20843776 0.04175928 0.061952163
0.162491 0.25445032 -0.007616798 -0.10475211 0.12649913 0.0155480355 -0.13843055 0.20161414
-0.05045933 -0.06329318 -0.0028590406 -0.029325964 0.09359079 0.048544884 -0.032808352 -0.00032408081
0.051870417 -0.05073068 0.32406345 -0.030071253 0.08937974 -0.046328004 -0.14018255 0.1890785
0.013391808 -0.07462446 0.016492069 0.12619592 -0.24416934 -0.0031653743 0.22927864 -0.043295033
-0.18540698 0.109840676 -0.1425652 -0.06447007 -0.21637926 0.015356572 0.008085279 -0.044020265
0.12016375 -0.20161583 0.0085357 -0.016597169 -0.0971878 -0.028445376 0.23340261 0.07498655
0.11536687 -0.24336268 -0.038456976 -0.051035214 0.15738225 -0.12667558 -0.03771812 0.105075814
0.051029094 -0.03557431 0.021465048 -0.14301498 0.25277814 0.029867047 -0.09180189 0.028452143
-0.015819365 0.20260872 0.055384 0.10578377 0.0048191035 0.18163808 -0.022118375 0.25497752
0.06347651 -0.021511752 -0.006918721 -0.12320951 0.068001024 -0.020032024 -0.30475917 -0.178141
0.13995288 0.08584899 0.10249803 -0.052891552 -0.2812888 0.083120175 0.10999644 0.043916468
-0.064549096 -0.19427884 0.30003533 0.15086505 -0.018037235 0.02470748 -0.09661335 -0.1377454
0.022298433 0.066936545 -0.07552082 -0.048025157 -0.050123874 0.09372138 -0.08084252 -0.0056590214
-0.04022207 0.17091991 -0.12811211 -0.13947552 0.08419549 -0.14716557 -0.08276323 0.012591291
0.11509937 0.19078256 -0.0077981963 0.047615234 0.24946807 -0.28703326 -0.1456114 -0.21884188
0.21781147 -0.016292164 -0.047858536 0.0037657626 -0.056702606 0.19329594 0.13058735 -0.070866786
00000000: 9b14 adbc a3aa 963d 23dd 333d c2af 8ebb
00000010: 57b2 ba3d 356c a0bd 17b5 a9bd f389 17be
00000020: 97ea 38be b8a7 233e b6cc 94bd cf84 e4bd
00000030: 075d cabd de21 843e 1736 143d 1a4b c8bc
00000040: b3c0 59be 1e9d dcbc b56e 22be 4409 4dbd
00000050: 2a23 2a3d dfe7 673d 2a68 7abd bbfc 093c
00000060: 096f 89be 9bea bd3d 46e9 853d 6e35 04bd
00000070: cbcb df3d 1913 5e3d c441 8abd 6e75 62bd
00000080: 92a4 d23d d108 1f3d b910 09be 4611 1abc
00000090: 5812 523c 584e 81bd faf1 00bd fc8e a83d
000000a0: df2d b0bd c43d b5bd 7b08 a0bd 1c4d 8cbc
000000b0: 7d1a 3e3e 742a 8a3d 72f6 66be e2c4 9a3d
000000c0: a801 e3bc d52b a73d 133e 483d 7a6b dbbd
000000d0: 9d55 943d 7ee6 aa3d afc4 313e 9136 2d3d
000000e0: dd36 b23c ebf9 6ebe fc44 cdbd 841a 08bd
000000f0: 231a b0bc 4c13 2a3d 85f5 98bd be16 f33d
00000100: 60a0 c43d 57b3 923d 4966 083e d9be 9cbc
00000110: 87fe a4bd 2fd4 6a3e 56ed e8bd d28e 38bd
00000120: 529f 053d 3a03 2f3d 5457 6ebe 2aff e1bd
00000130: 9562 a6bc b61c 46bd 784a b5ba 1d03 2f3e
00000140: d51a ecbd 6f92 643d 06a2 81bd d14b 6d3e
00000150: 24d1 fd3d ceb5 073d 8a94 0abe 90e5 cb3d
00000160: 577b 413d 8aa6 15be 9a54 1dbe 4618 50bd
00000170: aa8c 0abe 90de d6bb ed1a 7dbd bbe0 13be
00000180: 14b0 603d fb88 f5bd e027 aa3d 758e 973a
00000190: 806c 5a3e 540a 1ebc f78d 1ebe 6a25 49bc
000001a0: 3a42 6ebc 652e 903e 141b 6e3d 5ed6 0dbe
000001b0: 025a 88bd 07d0 9bbd b3a6 043d d1a1 e93c
000001c0: a6d4 0c3d c5fd 953c 1cea 07be 4a3b 4cbd
000001d0: e176 a43d c0e3 8bbe 265c 2a3b a298 dcbd
000001e0: 5b3a ab3d 97f3 973c d45f b23e a334 173d
000001f0: 743f 15be b570 553e c70b 2b3d 8dc1 7d3d
00000200: 0a64 263e 5047 823e 5596 f9bb 4688 d6bd
00000210: fd88 013e 30bd 7e3c bdc0 0dbe f073 4e3e
00000220: 71ae 4ebd db9f 81bd be5e 3bbb 013d f0bc
00000230: 87ac bf3d 00d7 463d 0d62 06bd 64e9 a9b9
00000240: 1376 543d f9ca 4fbd a5eb a53e fd57 f6bc
00000250: ba0c b73d 6fc2 3dbd 048c 0fbe cb9d 413e
00000260: 5069 5b3c b5d4 98bd 601a 873c 8139 013e
00000270: 8707 7abe 2b72 4fbb 05c8 6a3e 2256 31bd
00000280: 54db 3dbe 26f4 e03d 9dfc 11be e208 84bd
00000290: 8692 5dbe 229a 7b3c 1e78 043c 984e 34bd
000002a0: 6a18 f63d 6174 4ebe 52d9 0b3c c9f6 87bc
000002b0: 660a c7bd 4706 e9bc 1801 6f3e 8c92 993d
000002c0: 7745 ec3d 1134 79be 1085 1dbd 4d0a 51bd
000002d0: d028 213e 3eb7 01be 517e 1abd fd31 d73d
000002e0: e203 513d 5eb6 11bd 78d7 af3c 8572 12be
000002f0: 236c 813e bdab f43c a102 bcbd 7814 e93c
00000300: 9d97 81bc a978 4f3e 55da 623d 29a5 d83d
00000310: 92e9 9d3b 55ff 393e 9831 b5bc 6a8c 823e
00000320: f9ff 813d 6a39 b0bc 70b6 e2bb 4555 fcbd
00000330: 1f44 8b3d 331a a4bc 6509 9cbe 986a 36be
00000340: cf4f 0f3e 98d1 af3d 7dea d13d d0a4 58bd
00000350: 1605 90be e93a aa3d d045 e13d c1e1 333d
00000360: 5132 84bd 08f1 46be 3b9e 993e 5e7c 1a3e
00000370: d3c2 93bc 5767 ca3c 38dd c5bd 210d 0dbe
00000380: 34ab b63c 0716 893d a9aa 9abd 07b6 44bd
00000390: b14e 4dbd fff0 bf3d c390 a5bd 506f b9bb
000003a0: e6bf 24bd a105 2f3e d22f 03be acd2 0ebe
000003b0: af6e ac3d 92b2 16be c57f a9bd b44b 4e3c
000003c0: 38b9 eb3d 815c 433e 0388 ffbb 3108 433d
000003d0: 8f74 7f3e 06f6 92be 281b 15be 1618 60be
000003e0: f809 5f3e 2577 85bc 5007 44bd 03cb 763b
000003f0: fe40 68bd 5fef 453e b1b8 053e 9b22 91bd

bias f4 [10]
0.00929289 0.080610506 0.055763025 0.06639164 -0.09018595 0.014059257 0.0055683963 0.06714866
0.031816877 0.034929242
00000000: 3541 183c 1f17 a53d c567 643d 57f8 873d
00000010: 69b3 b8bd cc58 663c 1877 b63b 3d85 893d
00000020: 6a52 023d f711 0f3d
