Models/lenet5_920.pth (torch_old, 263876 bytes, 10 tensors)

weight f4 [6, 1, 5, 5]
0	0x3d91ce4e	0.071194276
1	0xbdf68cb5	-0.120385565
2	0xbe2a81ed	-0.16651125
3	0xbe2129ba	-0.15738574
4	0xbe137f43	-0.14404015
5	0x3c8a7205	0.016900072
6	0xbde1aefa	-0.11019702
7	0xbe05977a	-0.13046065
8	0xbe4a5b34	-0.19761354
9	0x3d93a521	0.0720923
10	0xbe2c0f28	-0.16802657
11	0xbd8570c9	-0.06515653
12	0xbd77f3e1	-0.060535315
13	0xbd7e020c	-0.06201367
14	0x3e3de32e	0.18543693
15	0xbdb9a2fe	-0.090642914
16	0xbe569cfa	-0.2095832
17	0xbe1b65d7	-0.15175568
18	0x3e355edd	0.17711969
19	0x3e6a1e40	0.22863102
20	0xbcfec29b	-0.031098654
21	0x3d3e9a72	0.04653401
22	0xbd07984b	-0.033104222
23	0x3e990330	0.29885244
24	0x3d82e2d0	0.06390917
25	0x3db6af87	0.08920198
26	0xbd108dce	-0.035291485
27	0x3d16fab0	0.036860168
28	0x3e1bba0d	0.15207691
29	0x3e2db7ca	0.16964641
30	0xbc299c67	-0.010352231
31	0xbe387bed	-0.18016024
32	0x3dfecb43	0.12441113
33	0xbe106231	-0.14099957
34	0xbdca0bc8	-0.09865528
35	0xbd60cc1e	-0.05488216
36	0x3ca854b7	0.020548208
37	0xbe5d6700	-0.21621323
38	0x3e49f6c0	0.19723034
39	0x3dcbc288	0.09949213
40	0xbdecaa19	-0.11555881
41	0xbe6ce077	-0.23132502
42	0xbe89996d	-0.26874867
43	0x3e5619c9	0.20908274
44	0x3ec20ec1	0.3790188
45	0xbdbadd73	-0.09124269
46	0xbe670e1f	-0.2256398
47	0x3deef8a2	0.11668517
48	0x3ec280fb	0.3798903
49	0x3ed0df83	0.40795526
50	0xbe1c3588	-0.15254796
51	0x3e819d18	0.25315166
52	0x3de95fea	0.11395247
53	0x3daf191f	0.08549713
54	0xbe3a4f5f	-0.1819434
55	0xbe712bf6	-0.23551926
56	0xbd359035	-0.04432698
57	0x3e1b3ef6	0.15160736
58	0x3e9eec70	0.31039762
59	0xbdf11f85	-0.1177359
60	0x3d4571da	0.04820428
61	0x3e0d35fe	0.13790128
62	0xbd46d752	-0.04854519
63	0x3e9cd954	0.30634558
64	0xbe01534c	-0.12629431
65	0xbe79c3b6	-0.24391064
66	0xbe4608dd	-0.19339319
67	0x3e1a7c33	0.1508644
68	0x3e58a35a	0.21156064
69	0xbd880871	-0.06642235
70	0x3dacf0eb	0.08444389
71	0xbe1de40e	-0.15419027
72	0x3d273f6e	0.040831976
73	0x3ddbd5aa	0.107341126
74	0x3e25e190	0.16199327
75	0xbde4e14e	-0.11175786
76	0x3df300a5	0.11865357
77	0x3e4faa5d	0.20279832
78	0xbdff53ad	-0.12467132
79	0xbe5e27ff	-0.21694945
80	0xbe07190c	-0.13193148
81	0x3e2bc477	0.16774164
82	0xbe044b88	-0.12919438
83	0xbce190bd	-0.027534837
84	0x3bafc068	0.005363513
85	0xbe7d001b	-0.24707071
86	0x3e6c9b3a	0.23106089
87	0x3e0a2907	0.13492213
88	0x3d21a38b	0.039462607
89	0x3dfdd659	0.12394399
90	0xbcc92b70	-0.024556845
91	0xbbd635eb	-0.0065371892
92	0xbdac982e	-0.084274635
93	0x3d904db4	0.07046071
94	0x3e1b1e64	0.15148312
95	0x3d9e4296	0.07727544
96	0x3d18478b	0.037177604
97	0x3d293a9d	0.041315664
98	0x3e60b475	0.21943839
99	0xbe44483d	-0.19168182
100	0x3c0c3b5e	0.008559076
101	0x3e4d76f0	0.20064902
102	0xb915dd48	-0.00014292181
103	0xbe6a1c95	-0.22862466
104	0xbe00681d	-0.12539716
105	0x3e697042	0.22796729
106	0xbd8ae3f1	-0.067817576
107	0x3e3131a1	0.17304088
108	0x3e3fde99	0.18737258
109	0xbdbda4c2	-0.09259941
110	0x3e51db97	0.20493923
111	0xbd88bbd7	-0.066764526
112	0xbe32e592	-0.17470387
113	0xbe2b7620	-0.1674428
114	0xbe21af59	-0.15789546
115	0x3eccec69	0.40024117
116	0x3deff603	0.11716845
117	0x3e952b88	0.29134774
118	0xbd36fdff	-0.044675823
119	0x3e49bf41	0.19701864
120	0x3e47e28c	0.19520015
121	0x3ed6b14a	0.41932136
122	0x3e30567c	0.17220491
123	0x3e8c13d3	0.27358875
124	0xbde1d103	-0.11026194
125	0x3d05278a	0.03250841
126	0x3e4da7a3	0.2008348
127	0xbe0f1e45	-0.1397639
128	0xbe99b420	-0.30020237
129	0x3b865824	0.0040998627
130	0x3e70ec1b	0.23527567
131	0x3e504d55	0.20342
132	0xbe4435c7	-0.1916114
133	0xbe35da9c	-0.17759174
134	0x3dda3892	0.10655321
135	0x3ec84e17	0.39122078
136	0x3f0d3cfb	0.55171174
137	0x3e954524	0.29154313
138	0xbd9de8f7	-0.0771045
139	0x3e705f49	0.23473848
140	0x3ebf581b	0.37371907
141	0x3f16922a	0.5881678
142	0x3f2cf4df	0.67561144
143	0x3d90aa94	0.07063785
144	0x3e854077	0.26025745
145	0x3e7a5a6d	0.24448557
146	0x3f018a90	0.50602055
147	0x3eff8f83	0.49914178
148	0x3e1bd929	0.15219559
149	0xbe01da6c	-0.12680978

bias f4 [6]
0	0x3e3ebc1f	0.1862645
1	0x3c5d6c9d	0.013514665
2	0xbd8ece38	-0.06972927
3	0x3ce0f447	0.02746023
4	0x3e9ec170	0.31006956
5	0x3f3263e7	0.6968369

weight f4 [16, 6, 5, 5]
0	0xbb8ce3c0	-0.004299611
1	0xbd46c62c	-0.048528835
2	0xbc8a256f	-0.016863553
3	0x3dba9b10	0.09111607
4	0xbd8b9ca8	-0.06816989
5	0x3b27ccd4	0.0025604265
6	0x3dccde4c	0.10003337
7	0x3d605a56	0.05477365
8	0xbd60b229	-0.054857407
9	0xbd330399	-0.043704603
10	0x3c622ff3	0.013805377
11	0x3aaef483	0.0013348017
12	0xbd29ffa6	-0.04150357
13	0x3d4bcfdd	0.04975878
14	0x3d1ebeb7	0.0387561
15	0x3da83f9e	0.08215259
16	0xbd280da9	-0.041028652
17	0x3c901a27	0.017590595
18	0xbd98841b	-0.07447072
19	0x3b3c390e	0.002872053
20	0x3d45e1a3	0.048310887
21	0xbd9ea41b	-0.077461444
22	0xbb82d7aa	-0.0039929943
23	0xbc9057a2	-0.017619912
24	0x3b2f006e	0.0026703137
25	0x3bf86b59	0.007581156
26	0x3d8cde63	0.068783544
27	0x3dad807c	0.08471772
28	0x3d6da8e5	0.0580224
29	0xbcd7366e	-0.026271071
30	0x3cccdf9c	0.025008969
31	0xbce99e53	-0.028517878
32	0x3e147869	0.14499058
33	0xbd158244	-0.036501184
34	0xbceff084	-0.029289491
35	0x3d88da62	0.06682278
36	0x3d2861b5	0.041108806
37	0x3d3404f3	0.043950032
38	0xbd32a03f	-0.043609854
39	0x3c92010b	0.017822763
40	0x3d3e820a	0.046510734
41	0x3cfb8fd0	0.030708224
42	0xbcdfc333	-0.027314758
43	0xbd0bdbb9	-0.03414509
44	0x3d09c18e	0.033631854
45	0x3d5b9b81	0.053615097
46	0xbd8f0b15	-0.069845356
47	0x3db861bf	0.090030186
48	0x3da092ea	0.07840522
49	0x3d832514	0.064035565
50	0xbd4d5a7b	-0.050135117
51	0xbdc1ead5	-0.09468619
52	0x3d9e77c6	0.07737689
53	0x3d6da772	0.058021016
54	0x3dbaa3dd	0.09113286
55	0x3d04fa1d	0.03246509
56	0xbcffa3eb	-0.031206092
57	0x3daa8d9e	0.083277926
58	0x3da65225	0.081211366
59	0x3b79a1cd	0.0038090826
60	0xbd3872a5	-0.04503121
61	0x3d2cda0a	0.042200126
62	0xbd50435c	-0.05084549
63	0xbd357f44	-0.044310823
64	0xbd9465c3	-0.07245972
65	0xbd27870c	-0.040900275
66	0xbce986f9	-0.028506743
67	0x3dc3ee2c	0.09566912
68	0x3b23c82e	0.0024991143
69	0xbd1bd904	-0.03804876
70	0x3da2e9b4	0.079547316
71	0x3ce692f4	0.028146245
72	0xbd8595f4	-0.06522742
73	0x3dadaf96	0.08480756
74	0xbd2bb03c	-0.041916117
75	0xbcef4f6f	-0.029212682
76	0x3d8326cd	0.06403885
77	0x3c43611b	0.011925007
78	0x3c1dd35d	0.009632912
79	0x3bbbc852	0.005730667
80	0x3d1c9302	0.038226135
81	0x3da4c4c3	0.08045342
82	0xbd24d5c9	-0.040242944
83	0x3daa46f7	0.08314317
84	0x3ccb9b41	0.024854304
85	0xbd467b3b	-0.048457365
86	0x3d8ef69a	0.06980629
87	0xb994f27d	-0.00028409428
88	0xbbfcb600	-0.007712126
89	0xbda8817a	-0.08227821
90	0x3da7fd0c	0.08202562
91	0x3d591194	0.05299528
92	0x3d967618	0.07346743
93	0x3d063021	0.032760743
94	0xbc9f0c6b	-0.019415101
95	0xbd66fe60	-0.056394935
96	0xbda800fc	-0.08203313
97	0x3d2bc912	0.041939802
98	0xbd08ee62	-0.033430465
99	0xbd38ed6b	-0.045148294
100	0x3d4357bc	0.047691092
101	0xbd17a9d2	-0.037027188
102	0xbaef5d84	-0.0018262123
103	0x3d556d36	0.052106105
104	0xbc7be4d8	-0.015374385
105	0x3caeb6a3	0.021327322
106	0xbd85707f	-0.065155976
107	0xbd8da2e9	-0.06915838
108	0x3d05b981	0.032647613
109	0xbaf3714a	-0.0018573191
110	0x3dc2dc87	0.095147185
111	0x3c4b871c	0.012422349
112	0xbcf5bcd1	-0.029997261
113	0x3ce34b99	0.027746009
114	0x3cb41f07	0.021987451
115	0x3cecd977	0.028912289
116	0xbcea283c	-0.028583638
117	0x3cb92ea7	0.022605253
118	0xbd62274e	-0.055213265
119	0xbda35ec2	-0.07977058
120	0x3cb23886	0.021755468
121	0xbde2b93b	-0.11070486
122	0xbd900a59	-0.07033224
123	0xbd93ce94	-0.07217136
124	0xbcb00f66	-0.021491718
125	0x3d25c561	0.04047144
126	0xbc7055e9	-0.01466892
127	0xbcf67ced	-0.030088866
128	0xbd5c51f2	-0.053789087
129	0x3d794d58	0.060864776
130	0xbde2292e	-0.11043011
131	0xbd958ab9	-0.0730185
132	0x3d087676	0.0333161
133	0x3dd3658d	0.10322104
134	0x3cb86493	0.022508895
135	0x3d833830	0.06407201
136	0x3e2935be	0.16524407
137	0x3cbffe43	0.023436671
138	0x3df188b4	0.11793652
139	0xbd91465e	-0.070934996
140	0x3d701587	0.05861428
141	0x3e1a04be	0.15040872
142	0xbc2e5aa9	-0.010641732
143	0xbd784488	-0.06061223
144	0x3b86a3f5	0.0041089007
145	0xbd16da5a	-0.03682933
146	0xbd9b7eaf	-0.07592522
147	0xbe07f083	-0.13275342
148	0x3d10e293	0.035372328
149	0xbdab6398	-0.083686054
150	0x3d59a39c	0.053134546
151	0xbd7b9aef	-0.061427053
152	0xbd2e6ebd	-0.042586077
153	0x3d89659a	0.06708832
154	0xbd17b448	-0.037037164
155	0x3d8f26e6	0.06989841
156	0x3d9a6e7a	0.07540603
157	0x3cc9807a	0.024597395
158	0xbcd3ac48	-0.025838986
159	0x3d9135c4	0.07090333
160	0x3d3f55e8	0.046712786
161	0xbcf56a12	-0.029957805
162	0xbc2cccd9	-0.010546886
163	0xbd8c753e	-0.068583
164	0xbd169d45	-0.036771078
165	0x3cba555d	0.022745783
166	0x3c20079e	0.009767441
167	0xbcf9f3d2	-0.03051177
168	0xbd2e050d	-0.042485286
169	0xbd0108c6	-0.031502508
170	0xbd900eac	-0.070340484
171	0xbd165190	-0.036698878
172	0xbd488753	-0.04895718
173	0xbd4a52f3	-0.049395513
174	0xbda18f3b	-0.07888647
175	0x3c075000	0.00825882
176	0x3d7b4f7e	0.061355107
177	0xbc21a153	-0.009865123
178	0xbd5de860	-0.05417669
179	0xbd3ae26e	-0.045626096
180	0x3d73505d	0.059402812
181	0x3cb4db23	0.022077149
182	0xbbdd0059	-0.006744426
183	0xbdb31705	-0.08744625
184	0xbd6bf204	-0.05760385
185	0x3d5dcab6	0.0541484
186	0x3df66d94	0.12032619
187	0xbd15e945	-0.036599416
188	0xbc468b28	-0.012118138
189	0xbcdaa222	-0.02668864
190	0xbd89fc8b	-0.06737622
191	0x3d6d72c9	0.057970796
192	0xbca41b34	-0.020032503
193	0xbd337e03	-0.043821346
194	0xbc517650	-0.012784556
195	0xbd9dda5f	-0.077076666
196	0x3d8545ef	0.065074794
197	0x3d6bc7cd	0.05756359
198	0xbd2b33a8	-0.04179731
199	0xbda78fd5	-0.08181731
200	0x3c223500	0.0099003315
201	0x3db2b76e	0.08726393
202	0xbc4cf804	-0.012510303
203	0xbd9aa293	-0.0755054
204	0x3c3c7399	0.01150217
205	0x3cabca59	0.02097051
206	0x3de930f0	0.11386287
207	0x3d90db2f	0.07073056
208	0xbda60a32	-0.08107413
209	0x3cb2e829	0.021839218
210	0xb955e6b7	-0.00020399211
211	0x3dc19df8	0.09453958
212	0xbd8b8c17	-0.068138294
213	0xbd8e7dc9	-0.06957585
214	0xbdd20ec7	-0.10256725
215	0x3dbf16bd	0.09330509
216	0x3d9ee01b	0.077575885
217	0xbbf78892	-0.0075541222
218	0xbd5fd79e	-0.054648988
219	0xbcb15da3	-0.021651095
220	0x3d4d29ff	0.05008888
221	0x3c403ac3	0.01173276
222	0x3da8440f	0.08216106
223	0xbd833a1c	-0.06407568
224	0xbdb3b7d0	-0.08775294
225	0x3c51907d	0.012790796
226	0xbce5dad8	-0.028058454
227	0xbcc1d52e	-0.023661222
228	0x3d6b45d4	0.05743964
229	0xbd44dd74	-0.048062757
230	0x3cef301d	0.029197747
231	0x3db2f905	0.08738903
232	0xbd75f683	-0.060049545
233	0x3d3203b4	0.043460563
234	0x3c814f82	0.015784983
235	0x3d26632a	0.040621914
236	0xbd399fab	-0.045318287
237	0x3cdd8e1c	0.027045302
238	0x3cbd1ffa	0.023086537
239	0xbd778c51	-0.06043655
240	0xbc4675ba	-0.012113029
241	0x3d0a85c8	0.03381899
242	0x3e016ed2	0.12639931
243	0x3c971164	0.01844091
244	0xbb80ccf8	-0.003930684
245	0xbda38e13	-0.07986083
246	0x3c9651e0	0.018349588
247	0x3c82314c	0.015892647
248	0xbba6c0b3	-0.0050888895
249	0xbd19c384	-0.037539974
250	0xbd1e8d6b	-0.038709085
251	0xbd15b1ec	-0.036546633
252	0x3dae0877	0.08497708
253	0xbde399fd	-0.11113355
254	0xbccb7583	-0.024836307
255	0x3d47b6dc	0.048758373

bias f4 [16]
0	0xbce0d62a	-0.027445871
1	0x3d74e0ca	0.059784688
2	0x3dc37608	0.09543997
3	0xbd47f13c	-0.048814043
4	0x3c0a99c4	0.008459512
5	0x3b15f7b8	0.0022883248
6	0x3d679f36	0.05654832
7	0xbbbf1605	-0.0058314824
8	0xbda61164	-0.08108786
9	0x3d2c870e	0.042120986
10	0xbca9f017	-0.020744367
11	0xbd826125	-0.06366185
12	0x3da5a120	0.08087373
13	0x3d747464	0.05968131
14	0x3d37c4d4	0.044865444
15	0x3da9a18d	0.082827665

weight f4 [120, 400]
0	0x3d0fc770	0.035102308
1	0xbd3bf39a	-0.045886613
2	0xb8e330c1	-0.000108332846
3	0x3d412852	0.047157593
4	0xb9c7e1b2	-0.00038124394
5	0x3c772a16	0.015085718
6	0x3d1f4c96	0.038891397
7	0xbd324481	-0.04352236
8	0x3adae7df	0.0016701183
9	0xbd3b988a	-0.04579977
10	0x3c007ed7	0.007842741
11	0x3d32a56e	0.043614797
12	0x3c79abf1	0.015238748
13	0x3c8648c0	0.016392112
14	0xbc720920	-0.014772683
15	0xbb651059	-0.003495237
16	0xbd042a80	-0.032267094
17	0x3c4c085e	0.012453167
18	0xbd726b81	-0.059184555
19	0x3cc01df2	0.023451779
20	0x3b58157b	0.0032971788
21	0x3c8d5391	0.017251762
22	0x3b5e6cb5	0.0033939306
23	0x3c68ec71	0.014216528
24	0x3c8217d6	0.015880506
25	0x3c3747ab	0.011186521
26	0x3ca47ea9	0.020079928
27	0x3c28e3b8	0.010308199
28	0x3c0b2c99	0.00849452
29	0x3caa57f1	0.020793887
30	0x3d0ace1c	0.033887967
31	0x3d4c087e	0.049812786
32	0x3d7eec08	0.062236816
33	0x3d231ccc	0.039822385
34	0xbc4a76ef	-0.012357458
35	0x3c205f8b	0.009788404
36	0x3c50283c	0.012704905
37	0x3c1afeb5	0.009460141
38	0xbca162fc	-0.01970052
39	0xbca0b683	-0.019618278
40	0xbd05ac3e	-0.032634966
41	0xbd7d0d2c	-0.06178014
42	0xbc4cbe8f	-0.012496605
43	0xbd769324	-0.060198918
44	0xbcf3be92	-0.029753957
45	0x3d1ace01	0.037794117
46	0xbc848ee3	-0.016181415
47	0xbd9592a4	-0.0730336
48	0x3cd0aee5	0.025474021
49	0xbc620d27	-0.013797081
50	0x3c60df8a	0.013725171
51	0xbc0068d2	-0.007837491
52	0xbba8ec89	-0.0051551503
53	0xbbd570f9	-0.0065137115
54	0x3d174794	0.036933497
55	0x3ce6732e	0.028131094
56	0xbd14e38c	-0.036349818
57	0x3d21f698	0.03954181
58	0xbc41f1a6	-0.011837399
59	0x3b5e3e13	0.003391151
60	0x3cd217d5	0.02564613
61	0x3b605c50	0.003423471
62	0x3d77091e	0.06031143
63	0x3accddd4	0.0015630075
64	0xbd2044a1	-0.03912795
65	0x3ca46a9a	0.020070363
66	0xbc8af29c	-0.016961388
67	0x3d38fca6	0.04516282
68	0xbcfa2f99	-0.030540274
69	0x3cf12fe9	0.02944179
70	0x3c9b1948	0.018932953
71	0x3be4cc42	0.0069823572
72	0xbc0c7b91	-0.008574382
73	0xbc124d78	-0.008929603
74	0xbd60690a	-0.054787673
75	0x3b86613d	0.004100947
76	0xbc3a4489	-0.011368879
77	0x3cb80a24	0.022465773
78	0xbc93c158	-0.01803653
79	0x3b4ae370	0.0030958317
80	0x3c11817f	0.008880972
81	0x3cfc8d2d	0.030829037
82	0xba759c0a	-0.000936926
83	0x3d0c4738	0.034247607
84	0x3c8ccb6c	0.017186843
85	0x3c13165b	0.008977498
86	0xbbb1ea03	-0.0054295077
87	0x3d95896a	0.073016
88	0xbb7cb162	-0.0038557877
89	0xbcc5eb2b	-0.024159988
90	0xbd029fd5	-0.03189071
91	0x3d246b43	0.040141355
92	0xbbf5648c	-0.0074887928
93	0x3c5927a0	0.013254076
94	0x3d01f9b2	0.03173227
95	0xbd12a519	-0.03580198
96	0x3b8dc496	0.0043264134
97	0xbce3d5a4	-0.027811833
98	0x3c59ee96	0.013301512
99	0xbd2229ed	-0.039590765
100	0xbd3a78d1	-0.045525376
101	0x3d24324f	0.04008704
102	0x3d1f5f40	0.038909197
103	0xbd114a41	-0.035471205
104	0x3c99e912	0.018787894
105	0xbcf6c2d2	-0.030122194
106	0x39ad2127	0.00033021832
107	0xbc103ae6	-0.008803105
108	0x3cc97bc8	0.024595156
109	0xbd1f2dc2	-0.038861997
110	0xbd129ca3	-0.03579391
111	0xbbf2e2e1	-0.0074123
112	0xbc5623fc	-0.013070103
113	0xbd2ca668	-0.042150885
114	0x3c6064d9	0.013695919
115	0x38876d28	6.4576336e-05
116	0xbd4e4efa	-0.050368287
117	0xbd2f71ad	-0.04283302
118	0xbd0a67dd	-0.033790458
119	0xbcee1caa	-0.029066402
120	0x3d5605ef	0.052251752
121	0x3b9cc2c8	0.004783962
122	0xbd0c5d46	-0.03426864
123	0x3cd4eef4	0.025992848
124	0x3c1b93bb	0.009495671
125	0x3af07835	0.0018346371
126	0x3a7d602d	0.00096655154
127	0x3d092f8d	0.033492614
128	0xbceb9824	-0.02875907
129	0xbd053f6f	-0.032531198
130	0x3ce62d12	0.028097663
131	0x3d74825a	0.059694625
132	0xbd381e0c	-0.04495053
133	0x3a80a59f	0.0009814984
134	0xbc96ef84	-0.018424757
135	0x3d9e29e7	0.07722836
136	0x3d2ea852	0.04264099
137	0x3c13cf64	0.009021614
138	0xbcc3d6a5	-0.023906061
139	0x3d07b4b1	0.033131305
140	0xbcf0b81d	-0.029384667
141	0xbc037e8d	-0.0080257775
142	0xbc7fdbb1	-0.015616343
143	0xbd26b5d9	-0.040700767
144	0x3d3bfa93	0.045893263
145	0xbd0d5774	-0.03450723
146	0xbcff5411	-0.031168016
147	0x3cddcf1e	0.0270763
148	0xbd0395a8	-0.032125145
149	0x3cdba7c5	0.026813397
150	0x3cb837f9	0.022487627
151	0xbc95ff84	-0.018310316
152	0xbcee737a	-0.029107798
153	0x3c69a072	0.014259445
154	0xbcf2254f	-0.029558806
155	0xbd42d279	-0.047564004
156	0xbc5080ee	-0.012726052
157	0xbc6122ca	-0.0137412045
158	0xbc345843	-0.011007371
159	0x3c232aae	0.009958906
160	0xbd4e72de	-0.050402515
161	0x3d44e3d9	0.048068855
162	0x3d539ff8	0.05166623
163	0x3d331050	0.04371673
164	0x3bf388e5	0.0074320906
165	0xbc7c6d32	-0.015406894
166	0xbcf92aff	-0.03041601
167	0xbd848758	-0.06471127
168	0xbce88e0c	-0.028388046
169	0xbd30f54a	-0.043202676
170	0x3c903466	0.01760311
171	0xbd036132	-0.032075115
172	0xbd01e0c6	-0.0317085
173	0xbd363417	-0.04448327
174	0x3bc86f03	0.0061167493
175	0x3cc42536	0.023943525
176	0xbc273ed1	-0.010207848
177	0xbd4ce183	-0.050019752
178	0xbcf38a32	-0.029728983
179	0x3d322a34	0.04349728
180	0xbd19d296	-0.037554346
181	0x3d3efb39	0.046626303
182	0xbcced672	-0.02524874
183	0x3d1e4ed1	0.038649384
184	0x3d445a9d	0.047937978
185	0x3d10ddcd	0.035367776
186	0x3d27f881	0.041008476
187	0x3cfff67a	0.031245459
188	0xbd3520db	-0.044220787
189	0xbcb44532	-0.022005651
190	0xbcafbd7b	-0.021452656
191	0xbd23c2e5	-0.039980788
192	0x3cfc0018	0.030761763
193	0x3bfd9514	0.0077387188
194	0x3cc22091	0.02369717
195	0x3d131f5a	0.03591857
196	0x3c87d06c	0.016578875
197	0x3cfe63bc	0.031053416
198	0xbd6c414e	-0.057679467
199	0x3d20d688	0.039267093
200	0xbcab6b8f	-0.020925311
201	0x3c5973a2	0.013272198
202	0xbcf8b5ee	-0.030360188
203	0x3cc58e16	0.024115603
204	0x3d009b11	0.031397883
205	0xbcbbb750	-0.022914559
206	0x3c885d27	0.016645981
207	0x3d3db9e4	0.046319857
208	0xbb87cbb4	-0.0041441564
209	0xbc43736b	-0.011929373
210	0x3c575bf6	0.013144484
211	0xbcb95071	-0.022621365
212	0x3d11a5f4	0.035558656
213	0x3cd8a73e	0.026446935
214	0xbc90c228	-0.017670706
215	0xbd0a42a7	-0.03375497
216	0xbcfb0237	-0.030640705
217	0x3a9fe4a9	0.0012198883
218	0x3c219b18	0.009863637
219	0xbd4a70d7	-0.04942402
220	0xbca767d2	-0.020435248
221	0xbca13dfa	-0.019682873
222	0xbcb1dc89	-0.021711605
223	0x3b3c66d1	0.0028747807
224	0xbcb11a29	-0.02161892
225	0x3c0fa9a8	0.008768477
226	0xbb42eb87	-0.0029742436
227	0x3b877a07	0.00413442
228	0x3c3cfd7f	0.011535048
229	0x3cdbd981	0.026837112
230	0x3d8be55b	0.068308555
231	0xbb0345eb	-0.0020030688
232	0x3d2391b9	0.039933894
233	0xbd571057	-0.052505817
234	0x3ce9add3	0.028525269
235	0x3c9aab90	0.018880635
236	0x3d071bf6	0.03298565
237	0xbcb19a8b	-0.021680137
238	0x3d4f8242	0.050661333
239	0x3986c44e	0.0002570473
240	0x3c8ca8db	0.01717036
241	0x3d2759ac	0.040857002
242	0xbccabdc6	-0.024748694
243	0xbc138a22	-0.009005101
244	0x3cb19cf2	0.021681283
245	0x3c872227	0.016495777
246	0xbcbc3ac8	-0.022977248
247	0x3c928ce7	0.017889453
248	0x3d054a6b	0.032541674
249	0xbd10bfe3	-0.035339247
250	0xbd54a1ed	-0.051912237
251	0x3d0cee88	0.03440717
252	0x3c1cf4b7	0.009579829
253	0x3d35e3ef	0.044406828
254	0x3c93ea97	0.018056197
255	0xbaa4bb22	-0.0012567977

bias f4 [120]
0	0x3d5207dd	0.05127703
1	0xbd392b1d	-0.04520713
2	0xbd5dd466	-0.054157637
3	0x3d32becf	0.043639
4	0x3d2e8ef0	0.042616785
5	0xbd03000d	-0.03198247
6	0x3c262bcf	0.010142281
7	0x3a238e07	0.000623912
8	0xbcdb4ca8	-0.026769951
9	0x37a33331	1.9454952e-05
10	0xbc0e29af	-0.00867693
11	0x3cafa729	0.021442013
12	0xbca3ea7a	-0.020009268
13	0xbce60019	-0.028076218
14	0xbc5ef87f	-0.013609051
15	0xbc06028a	-0.008179316
16	0xbd1051f8	-0.03523442
17	0xbcbede53	-0.023299372
18	0x3d87b423	0.06626155
19	0xbc14745f	-0.009060948
20	0xbc83db0f	-0.016095666
21	0xbd0ebe7d	-0.034849633
22	0x3c3c30fa	0.011486286
23	0xbcef5feb	-0.029220542
24	0x3d10027f	0.03515863
25	0xbd0119aa	-0.031518616
26	0x3d74f965	0.059808154
27	0xbd1ce3a3	-0.03830303
28	0x3d1e77ba	0.0386884
29	0x3945ad19	0.00018851868
30	0x3c9babcf	0.019002823
31	0xbd26f47e	-0.04076051
32	0xbd2c875b	-0.042121273
33	0xbd2d10d4	-0.042252377
34	0xbca5cdab	-0.020239672
35	0xb9a99cf9	-0.00032351146
36	0xbd03341b	-0.032032114
37	0x3caa02f2	0.020753358
38	0x3cec2bbc	0.028829448
39	0xbd3a1e1b	-0.045438867
40	0x3c8bad01	0.017050268
41	0xbae588a9	-0.0017512041
42	0x3c280d7c	0.010257121
43	0xbd16a37c	-0.036777005
44	0xbd09be7f	-0.033628937
45	0x3d5791cd	0.05262928
46	0x3ca136e7	0.0196795
47	0x3c9446e8	0.018100217
48	0xbd38359f	-0.044973012
49	0xbd0664b2	-0.032810874
50	0x3bfec1c9	0.007774566
51	0x3d0ac20b	0.03387646
52	0xbab4b6d7	-0.0013787401
53	0xbd1d7340	-0.03843999
54	0x3bf80572	0.0075690085
55	0xbc319109	-0.010837802
56	0x3d69e574	0.05710359
57	0x3ca30f96	0.019904893
58	0x3c1e3a2a	0.009657422
59	0xbc4f8340	-0.01266557
60	0xbbdd5692	-0.0067547048
61	0x3d0d0a4b	0.034433644
62	0x3cd4074c	0.025882386
63	0xbc7a0802	-0.015260698
64	0x3c810d12	0.015753303
65	0xbcc1f6fe	-0.023677345
66	0xbd2a07ad	-0.041511226
67	0x3d31d574	0.043416455
68	0xbd10b8ef	-0.035332616
69	0xbcac4966	-0.021031093
70	0xbc4aa1bf	-0.012367665
71	0xbd3ed01d	-0.04658519
72	0xbb166fd2	-0.0022954834
73	0xbc30fe45	-0.01080281
74	0xbd108e11	-0.035291735
75	0x3c90c085	0.017669925
76	0xbd392a45	-0.045206327
77	0xbcf1632c	-0.029466234
78	0x3d1f7638	0.0389311
79	0x3ced077a	0.02893423
80	0x3c7346df	0.01484844
81	0xbd081e07	-0.03323176
82	0x3cbfeaa9	0.023427324
83	0xbca8c817	-0.020603223
84	0x3caa9e18	0.020827338
85	0xbc9f470e	-0.019443061
86	0x3cae99b5	0.021313528
87	0x3b3d9fe4	0.0028934414
88	0x3d18220d	0.03714185
89	0x3bdcb6ca	0.0067356573
90	0x3d1a18a4	0.037621155
91	0x3c3af01a	0.011409784
92	0xbd3398ad	-0.043846775
93	0xbbfb129f	-0.007662132
94	0x3d2cf7da	0.042228557
95	0x3cbebd12	0.023283515
96	0x3c9a1385	0.018808136
97	0xbcc0dfa9	-0.02354415
98	0x3c9c8423	0.019105976
99	0xbceb766c	-0.028742991
100	0xbc4e8831	-0.012605713
101	0x3cd6410e	0.026154067
102	0xbc194d4a	-0.009356806
103	0xbc0cc8a0	-0.008592755
104	0x3ae08e78	0.0017132303
105	0xbbda4b07	-0.006661776
106	0xbc85d8d8	-0.01633875
107	0xbd48f46f	-0.049061235
108	0x3cedacfc	0.02901315
109	0xbd2d09c9	-0.04224566
110	0xbd090e6e	-0.033461027
111	0x3d42f1ea	0.04759399
112	0xbc55c470	-0.013047323
113	0xbd38c0ff	-0.04510593
114	0x3c383ede	0.011245457
115	0xbca06328	-0.019578531
116	0x3d08b746	0.03337791
117	0x3cac9023	0.021064823
118	0x3d4cc4b8	0.049992293
119	0x3c7e13a2	0.0155076105

weight f4 [84, 120]
0	0x3da7256f	0.08161437
1	0xbdbea312	-0.09308447
2	0xbcfc39f9	-0.030789362
3	0x3bc96c8d	0.0061469735
4	0xbd93865c	-0.072033614
5	0xbd8f838d	-0.07007513
6	0x3cd29f2d	0.025710667
7	0x3d6abdb0	0.057309806
8	0x3da29212	0.07938017
9	0xbe0a9418	-0.13533056
10	0xbb905370	-0.004404478
11	0x3daa3b42	0.08312084
12	0x3d1673a2	0.03673137
13	0x3dcf4ff8	0.10122675
14	0x3d57f9d9	0.052728508
15	0x3d14c341	0.03631902
16	0x3c53a863	0.0129185645
17	0x3cec7890	0.028866082
18	0x3b8f1bb3	0.0043673157
19	0xbd9a6bfb	-0.07540127
20	0x3dfbfcdd	0.12304089
21	0x3bad584e	0.0052900678
22	0xbd7e70df	-0.06211936
23	0x3d87862e	0.066173896
24	0x3da3da82	0.080006614
25	0xbdb19733	-0.08671417
26	0x3b9370cb	0.00449953
27	0xbd9111c0	-0.07083464
28	0xbd37a97c	-0.044839367
29	0x3d2369b2	0.03989572
30	0x3dd22a4f	0.10261976
31	0xbdb49b19	-0.08818645
32	0x3dd657f8	0.104659975
33	0xbccb3a31	-0.024808021
34	0x3d862e10	0.065517545
35	0x3d3801ec	0.044923708
36	0x3d597d01	0.05309773
37	0xbce6716d	-0.028130258
38	0x3da5d559	0.080973335
39	0xbdb8ed44	-0.0902963
40	0xbdab146b	-0.08353504
41	0xbd76480a	-0.060127296
42	0x3d2fe32c	0.042941257
43	0xbddfccbc	-0.10927722
44	0x3da4b9b6	0.08043234
45	0x3c8415dc	0.016123705
46	0x3d87c05c	0.066284865
47	0x3d65dd5c	0.056119308
48	0x3d0d2df6	0.03446766
49	0x3dfc779d	0.12327502
50	0xbc1c0925	-0.009523665
51	0xbd21caca	-0.039500035
52	0x3c8f2e7b	0.017478218
53	0xbc0b9cf9	-0.008521312
54	0xbd0de499	-0.034641836
55	0xbd0c0a7c	-0.034189686
56	0xbcefb77e	-0.0292623
57	0xbd131e00	-0.035917282
58	0xbcf87e51	-0.03033367
59	0xbc862bf2	-0.016378377
60	0xbd9bd090	-0.076081395
61	0x3d0d881c	0.034553632
62	0x3d68aec6	0.056807302
63	0x3da16820	0.078811884
64	0x3c91f9cb	0.017819306
65	0xbda7c76d	-0.08192334
66	0x3c4f090e	0.012636436
67	0x3b1a29c2	0.0023523425
68	0xbdda8497	-0.10669821
69	0x3cc34afa	0.023839463
70	0xbd974d0e	-0.07387744
71	0x3dce5a39	0.10075802
72	0x3d1ddc6e	0.038540296
73	0xbd594559	-0.05304465
74	0xbd953375	-0.07285205
75	0x3dd89f5b	0.1057727
76	0xbd923383	-0.07138731
77	0x3cf53d65	0.029936502
78	0xbdbc98ff	-0.09208869
79	0x3da35d05	0.079767264
80	0xbb8e2886	-0.004338327
81	0x3c7e5633	0.015523481
82	0xbd609aac	-0.054835007
83	0xbd743b6a	-0.059626974
84	0xbc4793c3	-0.012181225
85	0x3d4e8832	0.050422855
86	0x3db91de0	0.09038901
87	0xbcd2fe01	-0.025755884
88	0x3ce2f561	0.027704896
89	0xbc6e0e1f	-0.014529734
90	0x3d9cdbeb	0.076591335
91	0xbc93b95c	-0.018032722
92	0xbdc3a13a	-0.09552236
93	0x3d938e82	0.072049156
94	0xbb4bea52	-0.0031115008
95	0x3d07fd16	0.033200346
96	0x3d08b856	0.03337892
97	0x3d92e03d	0.07171676
98	0x3d498a11	0.049203936
99	0x3d9f30b1	0.07772959
100	0x3ce674fb	0.028131953
101	0x3d9232dc	0.07138607
102	0x3d7fc388	0.062442333
103	0xbc1dc4cf	-0.009629442
104	0xbd28d049	-0.04121426
105	0x3d7ce8da	0.061745502
106	0x3d8327aa	0.0640405
107	0x3d9677db	0.07347079
108	0x3d421ab8	0.047388762
109	0x3db7e811	0.0897981
110	0x3cbaeb56	0.022817295
111	0x3c2c1440	0.010502875
112	0xbdb7b7d4	-0.08970609
113	0xbcc8fec6	-0.024535548
114	0x3d974eb2	0.07388057
115	0xbd187517	-0.03722104
116	0x3d662e88	0.05619672
117	0x3d37423e	0.044740908
118	0x3d8405ed	0.06446443
119	0xbc6d184a	-0.014471123
120	0x3dc03ecd	0.09386978
121	0xbd318408	-0.043338805
122	0x3d4abb8c	0.049495265
123	0x3d73af74	0.059493497
124	0xbcb7875d	-0.022403413
125	0x3bf686e9	0.0075234068
126	0xbccc86ca	-0.024966616
127	0x3bf5ade8	0.007497538
128	0x3c6c6573	0.014428484
129	0x3d8e1711	0.06937993
130	0x3d81f54e	0.06345616
131	0xbd6c25f4	-0.057653382
132	0x3a89aeae	0.0010504329
133	0x3d3c06f3	0.045905065
134	0x3db314da	0.087442115
135	0xbc17c964	-0.009264324
136	0x3d6d240d	0.05789571
137	0xbd7c5077	-0.061600175
138	0xbd554a95	-0.05207308
139	0xbcc98e4a	-0.024603982
140	0xbd9e54e0	-0.07731032
141	0xbdd3f44e	-0.10349332
142	0x3d01a973	0.03165574
143	0x3cc4e9f5	0.02403734
144	0x3ddbd5db	0.10734149
145	0xbd6d967b	-0.058004837
146	0x3c908b09	0.017644422
147	0x3ae92d13	0.0017789922
148	0xbb0dcb98	-0.0021636244
149	0x3d7de091	0.06198174
150	0x3d7a32e6	0.061083697
151	0xbd26958a	-0.040669955
152	0xbd1243fa	-0.03570936
153	0x3d81adf8	0.0633201
154	0xbbb8d482	-0.0056405673
155	0xbb15874a	-0.0022816234
156	0xbb4042a6	-0.00293366
157	0x3bb1b3e3	0.0054230555
158	0x3d2a99ed	0.0416507
159	0xbd72fc3a	-0.059322573
160	0xbb764b43	-0.003758148
161	0xbd73ff7c	-0.05956982
162	0xbd6cb572	-0.057790227
163	0xbc8c18be	-0.017101642
164	0x3d83ac25	0.06429318
165	0xbb9018d6	-0.004397492
166	0x3c828a2f	0.015935032
167	0x3d76fc7a	0.060299374
168	0xbdb5ae91	-0.088711865
169	0x3c93d6dd	0.01804679
170	0x3d95fdab	0.07323774
171	0xbcd16c95	-0.025564471
172	0x3b4477ad	0.002997856
173	0x3d9b46ee	0.07581888
174	0xbd9877ee	-0.0744475
175	0x3d22e11b	0.03976546
176	0x3da54bec	0.080711216
177	0xbd0bac06	-0.0340996
178	0x3da83960	0.082140684
179	0xbd33221c	-0.0437337
180	0xbb983f2a	-0.0046462016
181	0x3d8e6132	0.06952132
182	0xbd999189	-0.07498462
183	0x3d3ab7d5	0.045585472
184	0x3d266fba	0.040633895
185	0xbd24d8f8	-0.04024598
186	0xbcf251ac	-0.02957996
187	0xbd458e8c	-0.048231646
188	0xbcefcd81	-0.029272797
189	0x3d473781	0.048636917
190	0x3d803c2c	0.06261477
191	0x3d9d69c6	0.0768619
192	0x3c5c1402	0.013432505
193	0x3d2bc223	0.04193319
194	0xbd811c98	-0.06304282
195	0xbabc50f4	-0.0014367388
196	0xbbe3eaf3	-0.0069554984
197	0xbda65444	-0.08121541
198	0xbb0f0127	-0.0021820755
199	0x3d87b51a	0.06626339
200	0x3da919a2	0.08256842
201	0xbda6023b	-0.08105894
202	0x3d1c957e	0.038228504
203	0x3d84c3a6	0.064826295
204	0x3d6b5ca8	0.05746141
205	0xbd001626	-0.031271122
206	0xbd3879ca	-0.045038022
207	0x3d1af634	0.037832454
208	0xbd0c1075	-0.034195382
209	0xbbb05644	-0.0053813774
210	0x3d8574aa	0.065163925
211	0x3d1be204	0.038057342
212	0xbd990343	-0.07471325
213	0xbcf4497d	-0.029820198
214	0x3d94e262	0.072697416
215	0x3d1610c9	0.0366371
216	0x3d6d54ba	0.05794213
217	0xbdb01a59	-0.085987754
218	0x3cfe42bc	0.03103768
219	0x3d896ce1	0.0671022
220	0x3d5d2a20	0.05399525
221	0x3b5186ab	0.0031971138
222	0xbc070088	-0.008239873
223	0xbd89a8fe	-0.06721686
224	0xbdbe0665	-0.092785634
225	0xbd91fd56	-0.07128398
226	0xbbe1544b	-0.0068765036
227	0x3d8baead	0.06820426
228	0xbdbe1659	-0.09281606
229	0x3ca07fcf	0.019592194
230	0xbd369299	-0.0445734
231	0x3cb06f22	0.021537367
232	0x3c328c2a	0.0108976755
233	0xbd3009fd	-0.042978276
234	0x3d8019e6	0.0625494
235	0x3d07ec35	0.03318425
236	0x3d0eafd9	0.03483567
237	0x3d7ebad6	0.0621899
238	0xbd0ecfd9	-0.034866188
239	0xbdd229d3	-0.102618836
240	0x3da02f7b	0.07821556
241	0x3db7a068	0.08966142
242	0xbdc6fabb	-0.09715792
243	0x3a7a0e19	0.0009538844
244	0xbd9d8d34	-0.07692948
245	0xbd52ee35	-0.051496703
246	0x3da059f2	0.07829656
247	0x3bbdcacf	0.005791999
248	0x3dcde770	0.10053909
249	0xbe09746b	-0.13423316
250	0xbd1fd672	-0.03902287
251	0xb916ca88	-0.00014380564
252	0xbcee0a31	-0.029057594
253	0x3d29d990	0.04146725
254	0x3df17666	0.11790161
255	0xbd52eb4a	-0.05149392

bias f4 [84]
0	0x3da19201	0.07889176
1	0x3c9621e7	0.018326713
2	0x3d80f860	0.06297374
3	0xbc1357fd	-0.008993146
4	0xbdabb450	-0.08384001
5	0x3d9b00a9	0.07568485
6	0xbd5132ae	-0.051073723
7	0x3d68cd8c	0.05683665
8	0xbd31e56c	-0.043431684
9	0xbcb6d224	-0.022317
10	0x3c9a3d20	0.018827975
11	0x3d00300f	0.031295832
12	0x3d8d58f0	0.06901729
13	0xbd8079df	-0.06273245
14	0x3d811cc6	0.06304316
15	0x3db6b75d	0.089216925
16	0x3dc027e4	0.093826085
17	0xbd668990	-0.056283534
18	0xbbac16c7	-0.0052517387
19	0x3d825250	0.06363356
20	0x3da4b195	0.080416836
21	0x3daefd6a	0.08544429
22	0x3c21a57e	0.009866117
23	0x3cedf6f4	0.02904842
24	0x3dddc82f	0.108291976
25	0x3db1b179	0.08676428
26	0x3d38a918	0.045083135
27	0xbb13c129	-0.0022545552
28	0xbca12082	-0.019668821
29	0x3bfd2217	0.007725011
30	0x3caf4103	0.021393305
31	0x3d8c71df	0.06857657
32	0x3d6da1d3	0.058015656
33	0xbd81c66e	-0.063366756
34	0x3d42167f	0.047384735
35	0xbdb6bd1b	-0.08922788
36	0xbd598082	-0.05310107
37	0x3bf4eccd	0.007474518
38	0xbd96392e	-0.07335125
39	0xbd71c5d3	-0.05902655
40	0xbd94725d	-0.072483756
41	0x3d4bb215	0.04973038
42	0x3da6a222	0.08136393
43	0x3c324b0f	0.010882153
44	0x3d2c3188	0.042039424
45	0xbd0703ee	-0.032962732
46	0xbd7d0ac2	-0.061777838
47	0x3d0e2f09	0.034712825
48	0x3dd28f3f	0.10281228
49	0x3ab7f50d	0.0014034823
50	0xbca3193e	-0.019909497
51	0xbd8525d9	-0.065013595
52	0xbd11cd77	-0.035596337
53	0x3c881843	0.016613131
54	0xbc34f699	-0.011045122
55	0x3ce408e3	0.027836269
56	0xbd8471c7	-0.06467014
57	0x3d2f4123	0.04278673
58	0xbd2bf59a	-0.04198227
59	0x3d1b9b5b	0.037989955
60	0x3d8a2d0c	0.06746873
61	0xbd904581	-0.07044507
62	0x3cbaadb7	0.022787912
63	0x3cfe0cd4	0.031011976
64	0x3d40e07f	0.047089096
65	0xbd00a21a	-0.031404592
66	0x3d62397a	0.055230595
67	0x3b4c2c9a	0.0031154514
68	0x3de4abb6	0.11165564
69	0x3c8f2114	0.017471828
70	0xbda73d86	-0.081660315
71	0x3da1187c	0.07865998
72	0x3d610d6b	0.054944437
73	0x3d62fc2f	0.055416282
74	0x3d33f8f8	0.043938607
75	0x3de21611	0.11039365
76	0xbd6b6a66	-0.057474516
77	0xbd63d755	-0.05562528
78	0x3cfa442e	0.030550089
79	0x3cbefabf	0.023312924
80	0x3ccac5ca	0.024752516
81	0x3b73dee6	0.0037211715
82	0xbc7de686	-0.015496856
83	0xbced2323	-0.028947419

weight f4 [10, 84]
0	0xbe125e41	-0.14293768
1	0x3c445aff	0.011984586
2	0xbe310959	-0.17288722
3	0x3d90d57e	0.070719704
4	0x3de5e68a	0.112256125
5	0x3d3fd38b	0.046832602
6	0x3c870bb5	0.016485075
7	0x3e2a9f05	0.16662224
8	0x3e417c2f	0.18895029
9	0xbd4fc810	-0.050727904
10	0x3d5a5111	0.053299967
11	0x3d90e1dd	0.0707433
12	0xbdfd0b34	-0.123556525
13	0xbda9bb9c	-0.08287737
14	0x3e48c896	0.19607767
15	0x3e1cd331	0.15314938
16	0x3c04186d	0.008062464
17	0x3c7316b9	0.0148369605
18	0x3bf330b5	0.007421578
19	0xbe254bc4	-0.16142184
20	0xbdfac0f4	-0.12243834
21	0x3bc90589	0.006134693
22	0x3d134007	0.035949733
23	0x3cdfa93f	0.027302383
24	0xbcfe0a4e	-0.031010773
25	0xbdb16c1c	-0.08663198
26	0xbe02f70a	-0.1278955
27	0xbdcbeb72	-0.09957017
28	0x3dbc9d7c	0.09209725
29	0xbde3ed3b	-0.111292325
30	0x3d8615c4	0.0654712
31	0x3d94533b	0.072424375
32	0xbe091edb	-0.13390677
33	0xbd4c7849	-0.0499194
34	0xbde0bb51	-0.10973228
35	0x3d4fd3d2	0.050739117
36	0x3ddaa7da	0.106765464
37	0xbde25951	-0.11052192
38	0xbd2fce37	-0.04292127
39	0x3c43ed92	0.011958497
40	0x3b0a6ef9	0.0021123274
41	0x3dbaee78	0.091275156
42	0x3e02223b	0.1270837
43	0xbe019279	-0.12653531
44	0xbdb3d5ac	-0.08780989
45	0x3e0e5cb4	0.13902551
46	0xbd9f73f0	-0.07785785
47	0xbdc3bc25	-0.0955737
48	0x3d584c96	0.052807413
49	0x3c9ddad1	0.019269379
50	0xbdc4c2d1	-0.09607471
51	0xbd80ed9e	-0.06295322
52	0x3dd766ca	0.10517652
53	0xbbde8b0c	-0.006791478
54	0x3de3f200	0.11130142
55	0x3e0b14c5	0.13582142
56	0xbc7424c8	-0.014901347
57	0x3d15e272	0.03659291
58	0xbdad00ae	-0.08447395
59	0xbd8898a9	-0.066697426
60	0x3daa5948	0.0831781
61	0x3b30e365	0.0026991006
62	0x3c1f8a81	0.009737612
63	0xbe2ad2ec	-0.16682023
64	0xbb923032	-0.0044613117
65	0x3e1e2263	0.15442805
66	0xbdbe22b6	-0.09283964
67	0x3d1cb6ab	0.038260143
68	0xbe43e92a	-0.19131914
69	0xbdef2821	-0.11677576
70	0x3da14472	0.07874383
71	0x3e0dfdb1	0.13866307
72	0xbe5bba71	-0.2145784
73	0xbddcfda6	-0.10790567
74	0x3dfae614	0.12250915
75	0xbd7d426f	-0.061830934
76	0xbd24e2fb	-0.040255528
77	0xbcc1660e	-0.023608234
78	0xbd820b6f	-0.06349837
79	0xbc2a8c7c	-0.010409471
80	0xbd67930d	-0.056536723
81	0x3dd57390	0.104224324
82	0xbc7a0673	-0.015260327
83	0x3dd23665	0.10264281
84	0xbe4f1e4c	-0.20226401
85	0xbd372c59	-0.044720028
86	0xbda7fa70	-0.08202064
87	0x3d491ca9	0.049099598
88	0x3e57eacc	0.21085662
89	0xbd0df1d3	-0.03465445
90	0x3b0c2f65	0.0021390554
91	0x3d83484a	0.064102724
92	0xbd09c18e	-0.033631854
93	0xbbe940f0	-0.007118337
94	0x3e204d37	0.15654455
95	0xbd396740	-0.045264482
96	0xbdaf6e6b	-0.085659824
97	0x3d6ac29e	0.057314508
98	0xbdface8b	-0.12246426
99	0xbddc0894	-0.10743824
100	0x3d09463d	0.03351425
101	0x3de41e69	0.11138613
102	0x3e1003ea	0.14063993
103	0x3dc46ea7	0.09591418
104	0xbe33262f	-0.17495035
105	0xbdd0f0f8	-0.10202211
106	0xbc60ff92	-0.013732808
107	0xbc815be4	-0.015790887
108	0xbc1d4cac	-0.0096007995
109	0x3c56baa2	0.01310602
110	0xbdb83ac6	-0.08995585
111	0x3e11fc4f	0.14256404
112	0xbd5c442a	-0.053775944
113	0xbd144a02	-0.03620339
114	0xbd9f4cf7	-0.07778352
115	0xbdf7185b	-0.12065192
116	0x3e09e565	0.13466413
117	0x3e238c7c	0.1597156
118	0x3dcdb2f7	0.100439005
119	0x3d99c7a5	0.07508782
120	0x3c58b31b	0.013226296
121	0x3e0d5a06	0.13803872
122	0x3d695a30	0.056970775
123	0xbda97177	-0.08273595
124	0xbe38f438	-0.18061912
125	0xbdd9318d	-0.10605154
126	0xbdb29faa	-0.0872186
127	0x3e0942d5	0.134044
128	0x3e9a31e1	0.3011618
129	0xbd845e41	-0.0646329
130	0xbdd64236	-0.104618475
131	0xbd520fa9	-0.051284466
132	0x3d8167d5	0.063186325
133	0x3bc6ab10	0.0060628727
134	0x3e106ec5	0.14104755
135	0xbe015da5	-0.12633379
136	0xbe440bab	-0.19145076
137	0xbe0b5d4e	-0.13609812
138	0x3e352999	0.1769165
139	0x3e2b10ec	0.16705674
140	0xbdab73d9	-0.083717056
141	0xbc980473	-0.018556809
142	0xbdb1b603	-0.08677294
143	0xbe2ea40a	-0.17054763
144	0x3cf26774	0.029590346
145	0xbdf11562	-0.117716566
146	0x3e15bd3d	0.1462297
147	0x3e4a0acd	0.19730683
148	0xbdc6c0fb	-0.09704777
149	0xbb99614a	-0.004680787
150	0xbd471d3e	-0.048611872
151	0xbe338d21	-0.17534305
152	0x3d4285ba	0.047490813
153	0x3d76ad7a	0.060224034
154	0xbe09dee2	-0.1346393
155	0x3db0853e	0.08619164
156	0x3da329ea	0.07966979
157	0x3dcbba79	0.09947676
158	0xbd02e09f	-0.031952497
159	0xbe070971	-0.13187195
160	0xbdd9b72f	-0.106306426
161	0x3cff1490	0.031137735
162	0xbad8d19d	-0.0016541962
163	0x3dd0f7e9	0.10203535
164	0xbd063aef	-0.032771047
165	0x3d139670	0.03603214
166	0x3da28359	0.07935209
167	0x3e661cc3	0.22471909
168	0x3df97c08	0.1218186
169	0xbd87d358	-0.066321075
170	0x3e59dc3a	0.21275416
171	0xbd598772	-0.053107686
172	0xbd456da1	-0.048200253
173	0xbdd0861a	-0.10181828
174	0xbd8327af	-0.064040534
175	0xbdaedec2	-0.085385814
176	0x3d144830	0.036201656
177	0xbdedcee1	-0.11611725
178	0xbe081187	-0.13287936
179	0xbd87539e	-0.066077456
180	0x3cf80dd8	0.030280039
181	0x3df28947	0.1184259
182	0xbdff87c4	-0.12477067
183	0x3ccdb546	0.025110852
184	0x3dfafbe7	0.12255078
185	0xbdc2acfc	-0.095056504
186	0xbd770184	-0.06030418
187	0xbdd92b2e	-0.10603939
188	0x3e110954	0.14163715
189	0x3c84fea3	0.016234701
190	0x3ac856ae	0.0015284622
191	0xbdef0e44	-0.11672643
192	0x3e2981d7	0.16553436
193	0xbd8a8d57	-0.0676524
194	0x3d58155f	0.052754756
195	0xbd994d2c	-0.074854225
196	0x3c22aebd	0.009929356
197	0xbc31b3d0	-0.010846093
198	0x3d143dbf	0.0361917
199	0xbd41c681	-0.04730845
200	0xbc885c4e	-0.016645577
201	0xbd7e1b03	-0.06203748
202	0xbde15f94	-0.11004558
203	0x3cceb66c	0.02523347
204	0xbd4fbe1a	-0.050718404
205	0xbda7b9e6	-0.08189754
206	0xbd02a62a	-0.031896748
207	0x3dc433d1	0.09580196
208	0xbe0cf07c	-0.13763613
209	0xbded9d6c	-0.116022915
210	0x3dc82b53	0.097738884
211	0x3e19074f	0.14944194
212	0x3dc7f4ed	0.09763513
213	0x3e5676c8	0.20943749
214	0xbde7a7e0	-0.113113165
215	0xbcdf5ae8	-0.027265027
216	0xbd5e10bd	-0.05421518
217	0xbdcf4704	-0.10120967
218	0xbdaeff9f	-0.085448496
219	0x3e54a16b	0.20764701
220	0xbd8d8aa7	-0.069112115
221	0xbdc39559	-0.0954997
222	0xbe7c1a54	-0.24619418
223	0xbe366ef7	-0.17815767
224	0xbe14b0a5	-0.1452051
225	0xbde3206f	-0.110901706
226	0x3dc8915c	0.0979335
227	0x3e3257e7	0.17416345
228	0x3d8ffae9	0.07030279
229	0x3e2b7cec	0.16746873
230	0x3cb078d8	0.021541998
231	0x3d301922	0.04299272
232	0x3e1289a7	0.14310323
233	0xbe38b424	-0.18037468
234	0xbdeeedfa	-0.11666484
235	0xbd235055	-0.039871532
236	0x3e32cf6d	0.17461939
237	0x3d8f9889	0.07011516
238	0x3e672761	0.22573616
239	0xbe595bac	-0.21226376
240	0xbdbcc37f	-0.092169754
241	0xbdbc116e	-0.09183012
242	0x3c365ce3	0.011130544
243	0x3e14fe1e	0.14550063
244	0xbc252b37	-0.010081104
245	0xbdb85f58	-0.090025604
246	0xbd72072d	-0.059088875
247	0xbd00a155	-0.03140386
248	0xbd836036	-0.06414835
249	0x3db9b73d	0.09068153
250	0x3e35ac80	0.17741585
251	0xbd534427	-0.051578667
252	0x3e4a09f7	0.19730364
253	0x3e1288bc	0.14309973
254	0x3d18761a	0.037222005
255	0xbe071d03	-0.13194661

bias f4 [10]
0	0x3d53186a	0.051536955
1	0xbd16f2fe	-0.03685283
2	0xbc56e425	-0.013115917
3	0xbcb8483a	-0.022495378
4	0xbe08b047	-0.13348494
5	0xbdd8a86e	-0.105790004
6	0x3cecfba6	0.02892859
7	0xbde91c72	-0.11382379
8	0x3d92cb11	0.07167638
9	0xbd5e067f	-0.054205414
