models/lenet_rot10_jitt_979.pth (torch_old, 263896 bytes, 10 tensors)

weight f4 [6, 1, 5, 5]
0.23696241 0.2887078 0.29261053 0.2238785 0.19217962 -0.17117977 -0.09912071 0.11074718
0.17515735 -0.052276198 -0.2566141 -0.3108572 -0.41973987 -0.366812 -0.06447662 -0.1298813
-0.30414602 -0.26253176 -0.141798 -0.17212425 0.0661823 0.12618087 -0.0046799313 -0.14905702
-0.14709273 -0.10834537 -0.27618906 -0.19573538 -0.016566887 -0.109389104 -0.3092878 -0.07697728
-0.28607416 -0.2479372 -0.26779687 0.25830334 0.006167592 0.1967478 0.23026252 0.050496407
0.34856167 0.19183418 0.22058311 0.022559816 0.08846012 0.14985931 0.26243177 0.029880317
0.02955761 -0.20016971 0.049718533 0.21661133 0.18435588 0.15281335 -0.102758266 -0.3122937
0.34517205 0.50121224 0.29689634 -0.100655556 -0.12522416 0.452365 0.50877815 0.43577862
-0.002865392 -0.22599988 0.333583 0.49967837 0.5468403 -0.097855434 -0.09576718 -0.020175438
0.3797274 0.14461072 -0.52331096 0.14684147 0.08494848 0.26354933 0.17030771 -0.048765875
0.1266898 0.2782855 0.14301065 0.37706086 -0.0015823856 0.12432862 -0.0134539 0.10757862
0.39648342 0.18368472 -0.022587163 -0.20687029 -0.17938049 0.11563768 0.08714947 -0.2987197
-0.12030337 -0.21897282 -0.06534578 0.014778392 0.11885681 0.12253797 0.08717075 -0.14882421
-0.22041103 -0.003008046 0.27547422 0.4797236 0.46427178 0.32749462 -0.054825906 -0.11457974
0.14385764 0.12643456 0.12574011 -0.28485054 -0.2650983 -0.27418783 0.15594988 0.28260374
-0.31462598 -0.13849872 -0.21776403 -0.19518098 -0.075544156 -0.16001998 -0.24581426 -0.57877564
-0.5977083 -0.00089779875 -0.27254757 -0.6336103 -0.6674493 -0.35064402 0.13341351 -0.29458106
-0.26819327 -0.04767512 -0.011197691 0.5200378 -0.0010718007 0.25482854 0.24193026 0.6141786
0.50196064 0.2611131 0.6164016 0.74621844 0.42509294 0.40629283
00000000: 46a6 723e 82d1 933e 0cd1 953e 6840 653e
00000010: bcca 443e c049 2fbe ccff cabd 6bcf e23d
00000020: 735c 333e 911f 56bd ec62 83be ad28 9fbe
00000030: 25e8 d6be c8ce bbbe 510c 84bd 9aff 04be
00000040: 07b9 9bbe 906a 86be 7f33 11be 5741 30be
00000050: 968a 873d 8f35 013e 1c5a 99bb 67a2 18be
00000060: 7a9f 16be 2de4 ddbd a768 8dbe db6e 48be
00000070: 48b7 87bc 6507 e0bd f85a 9ebe 44a6 9dbd
00000080: 5078 92be 40e3 7dbe ac1c 89be 5640 843e
00000090: 8319 ca3b 4178 493e f0c9 6b3e 52d5 4e3d
000000a0: ad76 b23e 2e70 443e 8ae0 613e 5dcf b83c
000000b0: 942a b53d b874 193e 755d 863e 91c7 f43c
000000c0: cd22 f23c 4af9 4cbe a9a5 4b3d 5ccf 5d3e
000000d0: cac7 3c3e 1a7b 1c3e ed72 d2bd f6e4 9fbe
000000e0: 64ba b03e 724f 003f cc02 983e 8024 cebd
000000f0: c33a 00be 639c e73e 493f 023f 601e df3e
00000100: 4dc9 3bbb 836c 67be 64cb aa3e d8d5 ff3e
00000110: bafd 0b3f 6e68 c8bd 9521 c4bd f646 a5bc
00000120: a16b c23e d514 143e b5f7 05bf 9c5d 163e
00000130: 78f9 ad3d f0ef 863e 2565 2e3e babe 47bd
00000140: f9ba 013e 707b 8e3e 6271 123e 1f0e c13e
00000150: 0d68 cfba 01a0 fe3d bf6d 5cbc 2e52 dc3d
00000160: e0ff ca3e d917 3c3e b708 b9bc ced5 53be
00000170: 85af 37be 73d3 ec3d 6c7b b23d caf1 98be
00000180: 9d61 f6bd 693a 60be 02d4 85bd 1221 723c
00000190: 336b f33d 30f5 fa3d 9486 b23d 6065 18be
000001a0: 6eb3 61be a322 45bb f50a 8d3e 559e f53e
000001b0: 08b5 ed3e 60ad a73e 2191 60bd c8a8 eabd
000001c0: 6b4f 133e 1078 013e 04c2 003e eed7 91be
000001d0: f7ba 87be 5962 8cbe 53b1 1f3e 70b1 903e
000001e0: a816 a1be 9cd2 0dbe 89fd 5ebe 86dd 47be
000001f0: e5b6 9abd 47dc 23be bcb6 7bbe a42a 14bf
00000200: 6903 19bf 415a 6bba 5b8b 8bbe 4934 22bf
00000210: f5dd 2abf 9d87 b3be 8d9d 083e 54d3 96be
00000220: a150 89be fd46 43bd 8576 37bc 3221 053f
00000230: aa7b 8cba e378 823e 91bc 773e cf3a 1d3f
00000240: 7e80 003f 9eb0 853e 7fcc 1d3f 2c08 3f3f
00000250: c8a5 d93e 9d05 d03e

bias f4 [6]
0.18891482 -0.14078704 1.3723102 0.8323101 0.30689272 0.70193374
00000000: e372 413e 7a2a 10be dca7 af3f 4612 553f
00000010: 0b21 9d3e eeb1 333f

weight f4 [16, 6, 5, 5]
0.02328439 0.08108597 0.08796638 -0.0035223884 -0.14359261 0.03248709 0.017083496 0.03689155
-0.060093813 -0.11843434 -0.02511905 0.063674085 -0.0040871133 -0.0025727497 -0.11317864 0.065996476
0.08683574 -0.048303805 -0.07173314 -0.014925496 -0.0230576 0.09285608 0.059572436 -0.09299927
-0.12483117 -0.106899165 0.044562716 -0.07350272 -0.033226274 -0.12043616 0.020235302 0.006221231
0.030759431 0.02894705 -0.12909015 0.025032308 -0.03803512 -0.051586155 -0.056025673 -0.010642978
0.042122927 0.05189666 -0.07429821 0.043927945 -0.11723025 0.03639645 0.052195862 -0.007241598
0.020329483 -0.12489584 -0.14244819 -0.04144027 -0.11205386 -0.165587 0.06735752 -0.055911925
0.05827484 0.024878513 -0.12563322 0.117326155 0.010236855 0.06296277 -0.07034701 -0.11565112
0.08776968 -0.108587615 0.0052338718 0.028463513 -0.11367249 0.15500814 -0.17585154 -0.11733412
-0.02428657 0.07169162 0.2836604 -0.03592598 0.009812654 0.065614715 0.015982395 -0.031176686
-0.06751585 -0.04519087 -0.06810448 0.04887378 -0.009937681 -0.035130486 -0.022220775 0.077201195
0.084698796 -0.009362073 -0.087258145 0.13513209 0.10518306 0.13063589 0.12455101 2.2759546e-05
-0.019795638 0.04584483 0.13111608 0.12517436 -0.060074646 -0.04317059 -0.08537277 -0.049364973
-0.09661917 -0.046551883 0.044644635 0.024866896 0.04791826 0.059413113 0.08492902 -0.010838621
0.052463166 -7.531153e-05 -0.07643123 -0.0105581675 0.07866754 0.1329268 0.049311846 -0.08052233
0.03905196 0.02222448 0.087676845 0.1536945 0.045082852 0.13191041 0.16789435 0.020483367
0.0830646 -0.032249477 0.10657506 0.057281118 -0.015389404 0.12262662 -0.007833538 0.0017523922
0.009254268 0.13752273 0.09843971 -0.01825069 -0.03037055 -0.034823176 -0.04371446 -0.04985529
-0.05918424 -0.1446311 -0.21879156 -0.14475465 -0.0063895993 -0.011175106 -0.00772065 0.09463084
0.039988693 0.02464071 -0.030318482 -0.01953555 0.061506327 -0.041006483 0.015366175 -0.10053557
-0.019058557 0.0151895825 -0.08229462 0.045374367 -0.061206155 -0.0066458983 0.024338553 0.10714985
0.1157461 0.060201794 0.008480267 0.12516765 0.1045286 0.05051152 -0.043927938 -0.090963386
-0.09188521 -0.0686396 -0.07529887 -0.01613305 0.052015297 0.06670634 -0.0061806743 -0.018638788
-0.053448 0.028236564 -0.035445172 0.049862344 0.049971513 0.06160972 0.032639205 0.085471
-0.029906893 -0.0050645405 -0.0063980585 0.0801264 0.022197723 0.07206047 -0.046905976 0.08443776
0.07788831 -0.09540684 -0.14671247 -0.2748829 0.017724592 -0.18333441 -0.17689885 -0.18768409
-0.09792394 -0.0715976 -0.17428361 -0.08186969 -0.045831636 0.045679938 0.0018612448 0.0006841724
0.009923651 -0.038476273 -0.14239104 -0.12873602 -0.07145953 -0.12618324 -0.13156481 -0.118937716
-0.08253156 0.05077764 0.02351538 -0.047761716 -0.02311905 0.016436467 -0.1071469 0.04727478
-0.06014353 -0.057268858 -0.06256125 -0.003991623 -0.083465904 0.01340426 0.11021297 0.0427165
0.070968315 0.08277343 0.0892945 -0.023260381 0.05677359 -8.1922495e-05 0.017810242 -0.015073913
-0.022142457 0.059605367 -0.0550847 -0.076080695 -0.06763157 -0.08338967 -0.054531507 0.019504206
00000000: e8be be3c 6710 a63d b827 b43d dfd7 66bb
00000010: f109 13be 2f11 053d b0f2 8b3c 981b 173d
00000020: ee24 76bd b48d f2bd 77c6 cdbc 8f67 823d
00000030: 31ed 85bb 949b 28bb 34ca e7bd 2929 873d
00000040: f0d6 b13d 36da 45bd d3e8 92bd 118a 74bc
00000050: 4be3 bcbc 542b be3d 3a02 743d 6776 bebd
00000060: 7ca7 ffbd f3ed dabd 6587 363d 9888 96bd
00000070: 4618 08bd 3ca7 f6bd 81c4 a53c 78db cb3b
00000080: 34fb fb3c 5d22 ed3c 3530 04be 8e10 cd3c
00000090: b7ca 1bbd 014c 53bd 2d7b 65bd e35f 2ebc
000000a0: 1789 2c3d 9891 543d a929 98bd caed 333d
000000b0: 6a16 f0bd 7214 153d 54cb 553d ed4a edbb
000000c0: 048a a63c 64c9 ffbd f0dd 11be 46bd 29bd
000000d0: 7f7c e5bd a38f 29be bdf2 893d e703 65bd
000000e0: 99b1 6e3d 06ce cb3c ffa5 00be b248 f03d
000000f0: 7bb8 273c a0f2 803d 1812 90bd 7fda ecbd
00000100: 97c0 b33d 2f63 debd e680 ab3b 502c e93c
00000110: 1fcd e8bd 74ba 1e3e 6d12 34be df4c f0bd
00000120: a1f4 c6bc 0ed3 923d f03b 913e 1f27 13bd
00000130: 41c5 203c 0261 863d 83ed 823c 4066 ffbc
00000140: c045 8abd 101a 39bd 5d7a 8bbd df2f 483d
00000150: a8d1 22bc fce4 0fbd 5808 b6bc a91b 9e3d
00000160: 9076 ad3d 6163 19bc 66b4 b2bd 1160 0a3e
00000170: 376a d73d 6ac5 053e 9a14 ff3d c1eb be37
00000180: 762a a2bc cac7 3b3d 4b43 063e b52d 003e
00000190: d510 76bd a5d3 30bd ebd7 aebd ed32 4abd
000001a0: 45e0 c5bd 30ad 3ebd 4bdd 363d a9b5 cb3c
000001b0: f045 443d 2a5b 733d 44ef ad3d 7994 31bc
000001c0: 9ee3 563d 92f0 9db8 fa87 9cbd 2afc 2cbc
000001d0: 721c a13d f71d 083e 38fb 493d e4e8 a4bd
000001e0: f3f4 1f3d 1d10 b63c eb8f b33d 1762 1d3e
000001f0: cca8 383d 8613 073e 7fec 2b3e bccc a73c
00000200: c61d aa3d 0718 04bd 0644 da3d 9b9f 6a3d
00000210: d723 7cbc aa23 fb3d 3d58 00bc 86b0 e53a
00000220: 379f 173c c2d2 0c3e c29a c93d 7982 95bc
00000230: a9cb f8bc bfa2 0ebd ef0d 33bd 1035 4cbd
00000240: 2c6b 72bd 2d1a 14be e50a 60be 903a 14be
00000250: d85f d1bb cb17 37bc 82fd fcbb d0cd c13d
00000260: 2fcb 233d 50db c93c 775e f8bc 0509 a0bc
00000270: 0fee 7b3d 6af6 27bd 69c2 7b3c 98e5 cdbd
00000280: b120 9cbc badd 783c 158a a8bd 79da 393d
00000290: 4eb3 7abd d6c5 d9bb a561 c73c 6171 db3d
000002a0: 4b0c ed3d 2896 763d d1f0 0a3c f32b 003e
000002b0: 1713 d63d 2be5 4e3d c8ed 33bd 034b babd
000002c0: 502e bcbd eb92 8cbd 4b36 9abd 7529 84bc
000002d0: fe0d 553d 559d 883d 4187 cabb 5fb0 98bc
000002e0: 4aec 5abd 5e50 e73c f52e 11bd 753c 4c3d
000002f0: eeae 4c3d 795a 7c3d b0b0 053d 6b0b af3d
00000300: 4dff f4bc 72f4 a5bb cea6 d1bb 4f19 a43d
00000310: 00d8 b53c 7194 933d 7b20 40bd b4ed ac3d
00000320: e883 9f3d a964 c3bd cb3b 16be 74bd 8cbe
00000330: 2a33 913c 04bc 3bbe f924 35be 4230 40be
00000340: 598c c8bd c3a1 92bd 6777 32be 4cab a7bd
00000350: f4b9 3bbd e31a 3b3d 03f5 f33a 085a 333a
00000360: cf96 223c 4c99 1dbd f5ce 11be 60d3 03be
00000370: 6059 92bd 2e36 01be edb8 06be 9e95 f3bd
00000380: 4e06 a9bd 37fc 4f3d 54a3 c03c caa1 43bd
00000390: 2964 bdbc c5a5 863c d56f dbbd 33a3 413d
000003a0: 1059 76bd c092 6abd 1d20 80bd 29cc 82bb
000003b0: 2cf0 aabd 8b9d 5b3c 56b7 e13d 7ff7 2e3d
000003c0: d657 913d 1e85 a93d 09e0 b63d 8e8c bebc
000003d0: 6d8b 683d cecd abb8 c9e6 913c 93f8 76bc
000003e0: 1964 b5bc c224 743d 7fa0 61bd 32d0 9bbd
000003f0: 6c82 8abd 34c8 aabd 6e5c 5fbd 49c7 9f3c

bias f4 [16]
0.14536493 0.05045496 0.07273163 0.0070172627 0.22514163 0.12776798 0.072657034 -0.011090927
-0.05096043 -0.16391936 0.1407114 0.047534954 -5.4266333e-05 0.0035906972 0.19871077 0.008978315
00000000: 8bda 143e dca9 4e3d 52f4 943d 11f1 e53b
00000010: 878b 663e 9cd5 023e 36cd 943d b8b6 35bc
00000020: e2bb 50bd 7ada 27be a616 103e 03b4 423d
00000030: 089c 63b8 e751 6b3b d67a 4b3e c819 133c

weight f4 [120, 400]
0.0150858695 -0.014796193 0.026029028 -0.021185374 0.037542902 -0.028029185 0.013423902 -0.04601637
0.0041841525 0.0065775854 0.0626813 -0.011236174 0.03410345 0.04596137 0.06489434 0.008624379
-0.0049523506 0.0021127285 0.0007824149 0.028193632 0.0031886294 0.060142353 -0.02599124 0.011582399
0.027422365 -0.02175906 -0.01702708 -0.036214445 0.0017388167 0.029034965 0.01654171 0.042660434
-0.002156837 -0.00076420594 0.07812441 0.022496715 -0.068971395 -0.020810561 0.057494823 0.019853838
-0.0648948 -0.076599956 0.0053930213 0.023247715 -0.051504493 -0.028286856 -0.04963659 -0.01800259
0.047554884 0.029655006 -0.011242347 0.016659956 -0.016458584 0.012980896 0.008513809 -0.0051261196
-0.020586828 0.028810896 -0.019926535 -0.023619741 0.038796913 0.061985396 -0.03927584 0.049628414
0.015587394 -0.0067685856 0.018715644 0.042714063 0.004846488 0.030127574 -0.037214037 0.035624776
-0.008274914 0.058028754 0.11467692 -0.016150285 -0.04329729 -0.031048875 0.00467315 -0.035826113
-0.08549335 -0.0937067 -0.012922433 0.017031193 0.03068627 -0.0816588 -0.09694344 0.038624227
-0.0040444895 -0.0115602715 0.021478513 -0.02745791 -0.06483602 0.0017913552 0.04997986 0.11529066
0.037220933 -0.0052771852 -0.02767728 -0.001169483 0.08155321 -0.039047133 0.08146052 0.053736996
0.048335265 0.04360182 -0.032458436 0.052208588 0.09455546 0.06473965 -0.11662099 -0.061776027
-0.043614123 0.054852128 0.076498926 -0.047142208 -0.0013941344 -0.0042135 0.039809074 0.10365053
-0.05702983 -0.013875033 -0.0525775 -0.0089875 0.026809279 -0.052926935 -0.011223715 -0.00995582
-0.002413396 0.04007267 0.034476466 -0.013110994 -0.005916099 0.012683432 0.008519631 -0.022260075
-0.014047202 0.028452618 -0.053230003 -0.007884421 0.036778525 0.0123742195 0.04508922 0.012128966
-0.010177059 0.04924581 0.012392633 -0.020043042 0.00044476287 -0.034493424 0.083468966 0.022346295
0.05281225 0.0018880259 0.11659846 0.054852664 -0.042887863 0.064879306 0.0058703744 0.058701996
0.031177318 -0.036691096 0.08024951 0.041040435 0.0522367 0.084294155 -0.0009454374 0.013125946
0.0060849274 -0.016761035 0.061488178 -0.025518378 0.0038170696 -0.14931247 -0.037632503 -0.005455343
-0.0287715 -0.018901695 0.025296599 -0.0055505834 0.029280538 -0.01929964 0.043036286 0.01979795
-0.04661116 0.027612595 -0.042964075 0.047726255 -0.05011245 -5.3505657e-05 -0.040347334 0.04332676
0.034544356 -0.014392693 -0.014594018 -0.038975168 0.035685252 -0.010894754 0.0076189195 0.043960933
0.037644748 -0.018625183 -0.007083297 -0.058836784 0.011285463 -0.038561568 -0.11919689 -0.0694829
-1.0488805e-05 -0.0020535477 -0.08074494 -0.12856689 0.019056747 0.022805471 0.10182823 -0.07970382
-0.10980224 -0.061267145 -0.02070836 0.08178088 -0.026427483 0.0034309987 0.018414155 0.0261787
0.017964734 -0.004572742 -0.053186428 0.040389873 -0.07273938 -0.018874215 0.013400174 0.0065948344
-0.056963388 0.031036654 -0.089132346 -0.03538804 0.009290794 0.018526183 -0.00013238726 -0.10024335
-0.0033623537 0.0074640024 -0.089744955 -0.06974961 -0.06124364 0.0084586935 0.020917606 -0.030303523
-0.04572144 -0.041805927 0.058609635 0.11358099 -0.033766225 -0.018494247 0.029518766 0.107874505
00000000: b92a 773c bb6b 72bc d43a d53c f38c adbc
00000010: 96c6 193d 769d e5bc edef 5b3c a97b 3cbd
00000020: 371b 893b c988 d73b 0e5f 803d ee17 38bc
00000030: 0fb0 0b3d fd41 3c3d 53e7 843d 444d 0d3c
00000040: 5447 a2bb b475 0a3b fa1a 4d3a 55f6 e63c
00000050: 53f8 503b d457 763d 95eb d4bc 1ac4 3d3c
00000060: dea4 e03c 0e40 b2bc 607c 8bbc 9955 14bd
00000070: 02e9 e33a bcda ed3c 7b82 873c b5bc 2e3d
00000080: b859 0dbb fe54 48ba b1ff 9f3d 084b b83c
00000090: e040 8dbd e97a aabc b17f 6b3d 84a4 a23c
000000a0: 91e7 84bd 70e0 9cbd f1b7 b03b fe71 be3c
000000b0: 60f6 52bd d6b9 e7bc bd4f 4bbd 2b7a 93bc
000000c0: e9c8 423d 0eef f23c d231 38bc 767a 883c
000000d0: 27d4 86bc d3ad 543c 817d 0b3c 02f9 a7bb
000000e0: b5a5 a8bc d404 ec3c f93c a3bc 307e c1bc
000000f0: 83e9 1e3d 66e4 7d3d b4df 20bd 2a47 4b3d
00000100: 4562 7f3c 03cb ddbb 8d51 993c f1f4 2e3d
00000110: 4acf 9e3b 1ace f63c bf6d 18bd 49eb 113d
00000120: 8193 07bc 8faf 6d3d bcdb ea3d 9a4d 84bc
00000130: 8058 31bd 365a febc 3921 993b 67be 12bd
00000140: 2317 afbd 4ce9 bfbd 9db8 53bc 0085 8b3c
00000150: c661 fb3c bb3c a7bd 488a c6bd 7034 1e3d
00000160: a387 84bb 4b67 3dbc b5f3 af3c 69ef e0bc
00000170: bfc8 84bd e8cb ea3a afb7 4c3d 821d ec3d
00000180: fa74 183d 3dec acbb 77bb e2bc 5649 99ba
00000190: 5f05 a73d e3ef 1fbd c6d4 a63d 531b 5c3d
000001a0: 33fb 453d d297 323d 23f3 04bd acd8 553d
000001b0: 4ba6 c13d 3996 843d fcd6 eebd dc08 7dbd
000001c0: b9a4 32bd a0ac 603d 78ab 9c3d 3018 41bd
000001d0: 63bb b6ba 6611 8abb d70e 233d bb46 d43d
000001e0: 1c98 69bd 1b54 63bc 815b 57bd 4f40 13bc
000001f0: 229f db3c eac9 58bd ace3 37bc bc1d 23bc
00000200: 112a 1ebb 3d23 243d 3237 0d3d 7fcf 56bc
00000210: d6db c1bb 2bce 4f3c ec95 0b3c c35a b6bc
00000220: 3c26 66bc 7715 e93c b407 5abd a92d 01bc
00000230: 14a5 163d 3dbd 4a3c 79af 383d 92b8 463c
00000240: aebd 26bc f9b5 493d 780a 4b3c 4e31 a4bc
00000250: 102f e939 fa48 0dbd c7f1 aa3d 940f b73c
00000260: a851 583d a377 f73a 2ccb ee3d 30ad 603d
00000270: 2fab 2fbd 71df 843d 455c c03b 8171 703d
00000280: 9367 ff3c 6749 16bd db59 a43d 041a 283d
00000290: 26f6 553d 6aa2 ac3d 3bd7 77ba 350e 573c
000002a0: 1264 c73b 704e 89bc 07db 7b3d eb0b d1bc
000002b0: cd27 7a3b 5ee5 18be 8a24 1abd bcc2 b2bb
000002c0: 35b2 ebbc bad7 9abc d03a cf3c abe1 b5bb
000002d0: bddd ef3c 471a 9ebc d146 303d 4f2f a23c
000002e0: 58eb 3ebd cf33 e23c 19fb 2fbd 9b7c 433d
000002f0: b642 4dbd 436b 60b8 3f43 25bd 6777 313d
00000300: 627e 0d3d 54cf 6bbc c01b 6fbc 6da4 1fbd
00000310: b32a 123d e97f 32bc 21a8 f93b 6110 343d
00000320: 6131 1a3d d793 98bc 001b e8bb d7fe 70bd
00000330: aae6 383c bcf2 1dbd 801d f4bd 0d4d 8ebd
00000340: 13f9 2fb7 d094 06bb 9a5d a5bd 0aa7 03be
00000350: e51c 9c3c 8ad2 ba3c 528b d03d c23b a3bd
00000360: ffdf e0bd 42f3 7abd 94a4 a9bc bc7c a73d
00000370: 737e d8bc 9bda 603b 48d9 963c b774 d63c
00000380: c72a 933c f1d6 95bb 03da 59bd da6f 253d
00000390: 62f8 94bd 199e 9abc 678c 5b3c 7b19 d83b
000003a0: 7152 69bd 9540 fe3c 058b b6bd 0df3 10bd
000003b0: 6a38 183c 39c4 973c 6fd1 0ab9 634c cdbd
000003c0: ef5a 5cbb 9794 f43b 34cc b7bd e2d8 8ebd
000003d0: 9cda 7abd 5596 0a3c 665b ab3c 183f f8bc
000003e0: 6846 3bbd b13c 2bbd a810 703d 269d e83d
000003f0: 744e 0abd 3f81 97bc 57d1 f13c 4fed dc3d

bias f4 [120]
0.09859126 -0.015024308 -0.00076378987 0.04058095 -0.012950888 0.018552352 -0.022055255 0.047168206
0.09788189 -0.046848133 0.034584496 0.00977759 0.047765914 0.022725131 0.0042205006 0.11912669
-0.04190455 -0.021837749 0.07333643 -0.035526533 0.14052697 0.040261902 -0.013348172 -0.025888432
0.035135496 0.058789574 0.005267806 0.07481976 -0.0077727116 0.06753503 -0.0011330043 0.015634373
0.029937256 0.0002940152 -0.014035849 0.018069828 0.020096311 0.058389567 -0.028215861 0.040610846
-0.010354726 0.027445015 0.07297939 0.07627177 -0.03909955 0.021563627 0.020029044 -0.0061595785
0.08464173 0.067432225 -0.03601728 0.04973351 0.035807103 -0.020750059 -0.020077303 -0.0048155473
-0.0044391924 0.021173215 0.07042247 -0.051406402 0.076081336 0.09133012 0.02551253 0.009253651
0.0088391015 0.024656545 0.071147874 0.016775116 0.020909635 0.041111067 0.012355267 0.0846662
0.104738615 -0.018250968 -0.034382463 -0.013793529 -0.0029109675 0.1086942 0.111445986 -0.00041651528
0.050041556 -0.009313533 0.009116613 0.13052322 0.05979677 0.09261235 -0.043847483 0.03148339
0.066252984 0.010096685 0.009979676 -0.03412517 -0.01918484 0.064045705 0.012531227 -0.04220509
0.07900642 -0.03506511 0.03387061 0.032325223 0.033286512 0.041087523 -0.048213877 -0.003326792
0.074383974 0.07323953 0.013422633 0.083885185 0.01630828 0.009226806 -0.011362075 -0.0033894624
0.10696527 0.016706284 0.023441412 0.1589635 0.0359286 0.03573646 0.03518958 -0.040585615
00000000: 37ea c93d 8428 76bc 1239 48ba 3638 263d
00000010: f62f 54bc 1afb 973c 39ad b4bc 7333 413d
00000020: 4d76 c83d d4e3 3fbd 79a8 0d3d 2f32 203c
00000030: 31a6 433d 0e2a ba3c 204c 8a3b b2f8 f33d
00000040: 1ba4 2bbd 14e5 b2bc 6931 963d 4584 11bd
00000050: 4de6 0f3e aae9 243d 4bb2 5abc fa13 d4bc
00000060: 3dea 0f3d 56cd 703d 8f9d ac3b 1a3b 993d
00000070: 3bb2 febb ce4f 8a3d 5181 94ba a813 803c
00000080: fa3e f53c 0d26 9a39 9ef6 65bc 2d07 943c
00000090: 05a1 a43c e629 6f3d f324 e7bc 8f57 263d
000000a0: dea6 29bc 5ed4 e03c 3876 953d 6034 9c3d
000000b0: da26 20bd 34a6 b03c f313 a43c 4ad6 c9bb
000000c0: a558 ad3d e819 8a3d db86 13bd 5db5 4b3d
000000d0: 78aa 123d 07fc a9bc 2879 a4bc bdcb 9dbb
000000e0: a576 91bb 7373 ad3c a839 903d 858f 52bd
000000f0: 88d0 9b3d 490b bb3d a7ff d03c a09c 173c
00000100: e1d1 103c 86fc c93c fab5 913d f86b 893c
00000110: af4a ab3c 1464 283d bf6d 4a3c 7965 ad3d
00000120: 3381 d63d 0e83 95bc a0d4 0cbd 41fe 61bc
00000130: eec5 3ebb 119b de3d cb3d e43d bc5f dab9
00000140: 60f8 4c3d ca97 18bc d95d 153c e1a7 053e
00000150: 75ed 743d 8bab bd3d 6b99 33bd baf4 003d
00000160: a5af 873d 916c 253c cc81 233c d6c6 0bbd
00000170: 8729 9dbc 652a 833d c74f 4d3c 3fdf 2cbd
00000180: 1ece a13d 6fa0 0fbd e9bb 0a3d 7467 043d
00000190: 7057 083d 644b 283d ea7b 45bd 4f06 5abb
000001a0: a056 983d 9bfe 953d 9aea 5b3c ffcb ab3d
000001b0: f198 853c 082c 173c ff27 3abc be21 5ebb
000001c0: 9c10 db3d 9edb 883c 3408 c03c 54c7 223e
000001d0: de29 133d 6560 123d f322 103d 1a3d 26bd

weight f4 [84, 120]
0.109535225 -0.04920049 0.047135416 -0.014152258 -0.0015616361 -0.10321902 -0.04942194 -0.16737187
-0.026581436 -0.00055290194 -0.18151096 0.071817316 0.11683157 0.009536248 0.11827913 0.08369944
-0.09663102 -0.06330243 0.0583707 0.028775658 0.08739812 -0.090590805 0.09782752 -0.04346491
0.103670955 -0.10190267 -0.049689185 -0.04646084 -0.07266867 -0.020335378 0.058280505 0.0117893675
-0.10982491 -0.02491471 0.072589345 -0.008943054 0.054443862 0.06801007 -0.055313285 -0.074185856
0.013368583 -0.010635725 0.12359891 -0.05422638 0.099808335 -0.03451896 0.122985944 0.08112507
0.08349513 -0.0033214658 0.105174035 0.12152847 -0.057315093 -0.0061502433 0.020622693 0.02533354
0.040890124 -0.1060254 0.08399012 -0.02171727 0.013262105 -0.039576557 -0.106068 0.020429725
0.11744892 -0.08860227 -0.036660857 -0.055972014 -0.10015436 0.024330728 0.0399344 -0.072213925
0.024791384 -0.08793526 0.03880517 0.09119828 0.018977482 0.08651728 0.02211226 -0.06314717
0.11440804 0.018412936 0.028216986 -0.023579653 -0.05466931 0.016228106 0.053506576 -0.023695005
-0.05399143 0.04466009 0.029222075 -0.15556619 -0.07062852 0.010992117 0.09313834 -0.09015891
-0.0053694304 -0.08090591 -0.06188317 -0.118404314 -0.084114484 -0.06903892 -0.021334674 -0.06052143
-0.024635844 -0.057973564 -0.030442933 0.15914254 -0.028857086 0.1147582 -0.042336833 0.08645696
-0.087887466 0.011398103 -0.05571387 0.1630352 0.049994387 -0.031789616 0.020307213 0.0834288
0.006973676 0.0048290323 -0.0832653 0.04153162 -0.0048801573 0.0007822426 -0.05505762 0.1473526
0.13761452 -0.108066134 -0.041368894 0.098489225 -0.0981192 0.013688652 -0.007132061 -0.06469911
0.008875397 -0.027562026 -0.044217035 0.14212018 -0.04509285 0.018041097 -0.10433701 -0.09686729
0.011867284 -0.05998737 0.020396087 0.05562047 -0.0019435147 0.13562968 -0.065399274 -0.035709243
-0.1416313 0.13973321 -0.008061363 0.021728143 -0.09127924 -0.06699936 0.059333578 0.02048696
0.1208358 0.011443941 0.015431612 0.04224465 -0.059836034 0.12673269 0.007817355 -0.13484672
-0.11879461 0.12202877 -0.026429974 -0.11631106 0.08172106 0.037224483 0.10852495 0.015939664
0.13045971 0.01409353 0.13269949 0.056001924 -0.014737775 0.03466636 0.19742404 0.060535125
-0.13506131 0.00021883257 -0.06671536 -0.08228542 0.07936783 -0.100180626 -0.11215521 0.08006621
-0.09828342 0.04458766 -0.035463404 0.055803303 -0.038629036 -0.0123173585 -0.04262187 0.12807637
-0.0030853897 -0.049827226 -0.05775047 0.046255838 0.06603285 0.048704762 -0.02772353 -0.011226939
-0.05548782 -0.0041192714 -0.05477014 -0.030220583 0.06467397 0.018427735 -0.07426562 -0.04250931
0.07402466 -0.06767046 -0.06510946 -0.044890787 -0.060280453 3.49319e-05 -0.030858163 0.0008030452
0.07697116 0.14701514 -0.07150982 0.054379746 0.12507221 -0.015414088 -0.092690066 0.053050246
0.034605622 0.047091994 0.08253457 -0.15264781 0.06526284 0.05481507 -0.123549186 0.065054215
0.075307705 -0.099465236 -0.026262093 0.026093513 0.022714691 -0.05692053 -0.020980755 -0.072677545
-0.11828285 -0.051955096 -0.02062702 0.0876217 -0.04043859 0.030708753 0.059471767 0.001847311
00000000: 0154 e03d 7486 49bd 1111 413d dfde 67bc
00000010: d0af ccba 7e64 d3bd a96e 4abd 8863 2bbe
00000020: 50c1 d9bc 9ff0 10ba 02de 39be f514 933d
00000030: 6445 ef3d ec3d 1c3c 543c f23d 9d6a ab3d
00000040: 7ce6 c5bd b4a4 81bd 1d16 6f3d eeba eb3c
00000050: c9fd b23d ac87 b9bd cb59 c83d 4308 32bd
00000060: 7051 d43d 59b2 d0bd e386 4bbd b94d 3ebd
00000070: 50d3 94bd 6196 a6bc 8ab7 6e3d 3128 413c
00000080: e2eb e0bd ef19 ccbc b9a9 943d e385 12bc
00000090: 8700 5f3d dd48 8b3d 2f90 62bd c1ee 97bd
000000a0: e707 5b3c 7741 2ebc 6d21 fd3d 7b1c 5ebd
000000b0: 5068 cc3d c163 0dbd 0ee0 fb3d e724 a63d
000000c0: 7fff aa3d f3ac 59bb 7c65 d73d ebe3 f83d
000000d0: 3bc3 6abd fb87 c9bb ecf0 a83c 4988 cf3c
000000e0: 677c 273d d823 d9bd 0303 ac3d 6be8 b1bc
000000f0: 4d49 593c 071b 22bd 2e3a d9bd 3d5c a73c
00000100: 0f89 f03d 1b75 b5bd b229 16bd e942 65bd
00000110: bb1d cdbd 3c51 c73c 4192 233d e5e4 93bd
00000120: 4d17 cb3c 6717 b4bd 2cf2 1e3d 2ac6 ba3d
00000130: aa76 9b3c f92f b13d c524 b53c 4e53 81bd
00000140: c34e ea3d bad6 963c 4f27 e73c 1e2a c1bc
00000150: edec 5fbd cef0 843c b629 5b3d 071c c2bc
00000160: 1e26 5dbd 80ed 363d 2263 ef3c be4c 1fbe
00000170: afa5 90bd 4818 343c 50bf be3d 3ca5 b8bd
00000180: 0cf2 afbb ffb1 a5bd 3579 7dbd f67d f2bd
00000190: 3744 acbd 4764 8dbd 0ec6 aebc 52e5 77bd
000001a0: 1cd1 c9bc b075 6dbd 7563 f9bc 43f6 223e
000001b0: b265 ecbc 5906 eb3d 6369 2dbd 5910 b13d
000001c0: 58fe b3bd 1cbf 3a3c 3a34 64bd b3f2 263e
000001d0: eac6 4c3d d435 02bd 505b a63c b8dc aa3d
000001e0: 6f83 e43b dc3c 9e3b ff86 aabd 0f1d 2a3d
000001f0: bae9 9fbb 6a0f 4d3a 1984 61bd 9ae3 163e
00000200: d2ea 0c3e c751 ddbd 6e72 29bd b8b4 c93d
00000210: b8f2 c8bd 5e46 603c 10b4 e9bb f880 84bd
00000220: 1d6a 113c c2c9 e1bc ec1c 35bd f487 113e
00000230: 48b3 38bd ecca 933c a4ae d5bd 5c62 c6bd
00000240: ff6e 423c 51b5 75bd b215 a73c 4ad2 633d
00000250: 88bd feba 82e2 0a3e 0ef0 85bd db43 12bd
00000260: cc07 11be 3916 0f3e cf13 04bc 38ff b13c
00000270: 9cf0 babd f636 89bd c407 733d 45d4 a73c
00000280: c378 f73d 5e7f 3b3c dfd4 7c3c ba08 2d3d
00000290: a116 75bd 37c6 013e 5d14 003c 4215 0abe
000002a0: 974a f3bd 38ea f93d ac83 d8bc 7e34 eebd
000002b0: 5f5d a73d b378 183d 5442 de3d e693 823c
000002c0: 3b97 053e 8de8 663c 60e2 073e 4662 653d
000002d0: b576 71bc 50fe 0d3d 8729 4a3e aef3 773d
000002e0: 834d 0abe 6c76 6539 10a2 88bd 4285 a8bd
000002f0: 9a8b a23d 802b cdbd a1b1 e5bd c1f9 a33d
00000300: d148 c9bd 8da1 363d 1342 11bd 0192 643d
00000310: 7b39 1ebd bfce 49bc 4594 2ebd 7426 033e
00000320: 4034 4abb a217 4cbd c28b 6cbd c376 3d3d
00000330: 3b3c 873d a57e 473d 751c e3bc 32f1 37bc
00000340: 3247 63bd f4fa 86bb a856 60bd 2891 f7bc
00000350: c973 843d c3f5 963c 9318 98bd 3e1e 2ebd
00000360: 3e9a 973d cf96 8abd 1c58 85bd 67df 37bd
00000370: a3e8 76bd d883 1238 42ca fcbc 7383 523a
00000380: 0ea3 9d3d 238b 163e be73 92bd 4cbd 5e3d
00000390: ee12 003e 5f8b 7cbc 4ad4 bdbd 374b 593d
000003a0: a0be 0d3d 89e3 403d e207 a93d b54f 1cbe
000003b0: 86a8 853d c485 603d 5b07 fdbd 253b 853d
000003c0: ed3a 9a3d 6eb4 cbbd 9a23 d7bc 10c2 d53c
000003d0: 2914 ba3c 8025 69bd d5df abbc f7d7 94bd
000003e0: 473e f2bd dece 54bd fff9 a8bc 0173 b33d
000003f0: efa2 25bd ec90 fb3c ab98 733d 7921 f23a

bias f4 [84]
0.07463662 0.14257962 0.015616589 0.026186768 0.03474285 0.03350827 0.010851881 0.11814575
0.02502965 -0.008538373 -0.026533334 0.015242052 0.02703501 0.096226774 -0.08600995 0.008233201
0.033724528 -0.019579038 0.056472514 0.12671688 0.12609522 0.053190716 0.040192284 -0.033250727
-0.06309685 -0.0057732807 -0.014915279 -0.053774267 -0.09327848 -0.06766034 0.1343275 0.07694584
0.058657862 0.07130029 0.014170259 0.05907307 0.016389634 0.074502945 0.15733361 0.06675972
0.10369681 -0.004250403 -0.016158361 0.031161228 -0.063833915 0.07253693 -0.0075488724 0.007165584
0.11583491 0.020452682 0.068082884 0.13420874 0.07823824 0.051370546 0.12224842 0.113096476
0.06292757 -0.025657421 0.00015714316 -0.036125347 -0.05510648 -0.0033618526 0.120195836 0.002281281
0.016819866 0.011801462 -0.039259445 0.05200953 0.02135821 -0.0048917886 0.023153357 0.02231362
-0.079480715 0.08826257 0.03137163 0.016840948 0.068907805 -0.05098628 0.16891165 0.1280589
0.10658354 0.039211534 0.074675344 0.1612033
00000000: 16db 983d 6400 123e b9dc 7f3c a285 d63c
00000010: 854e 0e3d f83f 093d 16cc 313c 66f6 f13d
00000020: fb0a cd3c 88e4 0bbc 6f5c d9bc cdb9 793c
00000030: 8678 dd3c 8b12 c53d fc25 b0bd 8ce4 063c
00000040: bb22 0a3d 3864 a0bc b94f 673d 12c2 013e
00000050: 1b1f 013e 82de 593d aaa0 243d ea31 08bd
00000060: ec38 81bd ca2d bdbb 375f 74bc 6842 5cbd
00000070: ca08 bfbd 8191 8abd 268d 093e c895 9d3d
00000080: 3a43 703d e305 923d 602a 683c 9af6 713d
00000090: 8e43 863c 0095 983d 101c 213e 52b9 883d
000000a0: fe5e d43d f746 8bbb 8a5e 84bc d545 ff3c
000000b0: 5bbb 82bd 3e8e 943d 885c f7bb 46cd ea3b
000000c0: da3a ed3d 628c a73c 0a6f 8b3d 046e 093e
000000d0: 5f3b a03d ec69 523d 615d fa3d 209f e73d
000000e0: 2be0 803d 832f d2bc ccc6 2439 2cf8 13bd
000000f0: 55b7 61bd 8752 5cbb 3c29 f63d 8b81 153b
00000100: d1c9 893c eb5a 413c 83ce 20bd f207 553d
00000110: 6af7 ae3c 4c4b a0bb 1cac bd3c 0ecb b63c
00000120: c9c6 a2bd 02c3 b43d 8a7f 003d 07f6 893c
00000130: 891f 8d3d fdd6 50bd 2df7 2c3e df21 033e
00000140: 7948 da3d 469c 203d 63ef 983d 7a12 253e

weight f4 [10, 84]
0.22807348 -0.028202211 0.027333578 -0.056546316 0.07278251 0.105516806 -0.06610952 0.06052776
0.12323289 0.08635761 -0.12021457 -0.049770564 -0.082282975 0.23281348 -0.07011538 0.03791329
-0.12707901 0.010672213 -0.28349862 0.023570875 0.17323934 -0.27236727 0.028747978 0.08960027
-0.056817725 0.11256377 0.11730173 -0.060734037 -0.21887265 -0.03736454 -0.28206277 -0.15149717
0.058322247 0.11344161 0.1070121 -0.14742094 0.3824729 -0.062184904 -0.0011866697 -0.03892334
0.11595405 -0.07381191 -0.09911364 0.09633021 0.34393513 -0.14422001 0.025681753 0.25590038
-0.05613626 0.09858115 -0.3243718 0.2624811 -0.05633082 -0.08234519 -0.15144543 -0.29016507
-0.1303574 -0.16925295 -0.19623837 -0.150292 0.109546185 -0.16136223 -0.11236025 0.040366367
0.062227573 -0.062123485 0.033176348 0.015473425 -0.013585835 0.13874342 -0.046030797 -0.12938179
-0.102014385 0.0015485834 0.2915381 -0.11420894 -0.038614295 0.0040020677 -0.087918155 -0.08528264
0.32293087 -0.22159319 -0.33604217 0.18153642 -0.29924825 0.18283279 -0.11547128 0.09050717
0.07320224 -0.049002375 -0.09725905 0.1950687 -0.23747948 -0.15337439 0.31012133 0.36032304
-0.15706903 -0.036305986 -0.20294912 -0.068132654 -0.25626126 0.08244036 0.15482558 -0.073052995
-0.019350896 0.24565427 0.025390986 0.0742245 -0.10269133 0.06527781 -0.16746558 -0.017293068
-0.07343785 0.09382099 0.11500288 0.09482843 -0.08086047 0.06702296 -0.044558786 -0.13805494
0.049291637 -0.120263875 -0.18148094 0.20414293 -0.098174036 0.13915896 0.07949791 0.2335879
-0.2321163 -0.23303616 -0.16500466 0.12416996 0.10212372 -0.032759186 -0.21475141 0.1054827
0.00663604 0.091680616 -0.10531461 0.2877576 -0.08007749 0.064412475 0.15486285 0.057722725
-0.0041384366 0.2910519 -0.15695842 0.04855707 -0.032767314 0.08454916 0.06019385 0.012793124
0.12863742 0.21207513 -0.15057707 -0.26010716 -0.10348426 0.013787284 -0.26098186 0.06374192
-0.18706857 -0.18014292 0.19989783 0.0069867 -0.22863306 0.055726483 0.1732602 -0.17766389
0.18345046 0.11617924 -0.12337606 0.047985815 0.22314325 -0.12092166 0.016206656 0.087258615
0.2466157 -0.19529831 0.005624467 0.067572504 0.123838834 -0.107698046 0.029935816 0.0054659774
0.33947217 -0.007444326 0.028660577 0.20919508 -0.07677816 -0.04967095 0.029972725 -0.16521199
-0.062798485 0.020186171 0.053034876 -0.0035405504 -0.064430594 -0.1479365 0.2767462 0.07345908
0.03469223 0.12085964 -0.1853562 -0.05998966 -0.20330031 0.043051854 -0.06539448 -0.019784493
0.121062495 0.1245869 -0.023944655 0.056879815 -0.2647979 0.26401407 0.02750974 -0.11969686
-0.266313 -0.080554046 0.17189859 -0.07399903 0.03386206 -0.11474672 -0.27606294 0.24353507
0.075492196 -0.028890876 0.22118844 0.032234684 0.17973611 -0.035425793 0.09464885 -0.36782274
0.16415095 0.27989307 -0.09752984 0.05750496 -0.16850759 -0.316296 -0.054216024 -0.09380138
0.01267678 0.21731904 -0.20111583 -0.07627531 -0.021199344 -0.18517943 -0.1297017 0.109244965
0.012409373 0.08418916 -0.16897453 0.17448594 -0.0046030954 -0.14331427 0.09431697 -0.06907024
00000000: 188c 693e 5308 e7bc abea df3c 1c9d 67bd
00000010: ff0e 953d 3219 d83d 6e64 87bd f5eb 773d
00000020: 8761 fc3d 42dc b03d 0e33 f6bd 38dc 4bbd
00000030: fa83 a8bd a866 6e3e a798 8fbd f74a 1b3d
00000040: 0021 02be 81da 2e3c bb26 91be b517 c13c
00000050: a765 313e b973 8bbe e180 eb3c 5980 b73d
00000060: b4b9 68bd d587 e63d e43b f03d 41c4 78bd
00000070: 2720 60be 8f0b 19bd 886a 90be 1322 1bbe
00000080: 4fe3 6e3d 1354 e83d 2929 db3d 84f5 16be
00000090: 7dd3 c33e 99b5 7ebd 078a 9bba 156e 1fbd
000000a0: 5179 ed3d b32a 97bd 18fc cabd c648 c53d
000000b0: 4418 b03e 69ae 13be 8a62 d23c 6005 833e
000000c0: 23ef 65bd eae4 c93d 1014 a6be ec63 863e
000000d0: 25bb 66bd 98a4 a8bd 8314 1bbe 8490 94be
000000e0: 697c 05be a550 2dbe b6f2 48be 25e6 19be
000000f0: c059 e03d 243c 25be 211d e6bd 3457 253d
00000100: 57e2 7e3d 3275 7ebd ece3 073d 4084 7d3c
00000110: 1f97 5ebc c112 0e3e ca8a 3cbd a97c 04be
00000120: ebec d0bd d6f9 ca3a 7b44 953e 60e6 e9bd
00000130: 062a 1ebd c723 833b 6f0e b4bd aaa8 aebd
00000140: 3257 a53e 53e9 62be b80d acbe afe4 393e
00000150: 1137 99be 8538 3b3e 357c ecbd d35b b93d
00000160: 0eeb 953d b7b6 48bd c12f c7bd 17c0 473e
00000170: d22d 73be 2d0e 1dbe 39c8 9e3e 437c b83e
00000180: b4d6 20be 96b5 14bd e5d1 4fbe 2289 8bbd
00000190: ad34 83be 7ed6 a83d 998a 1e3e cf9c 95bd
000001a0: c585 9ebc cb8c 7b3e c200 d03c 0403 983d
000001b0: d54f d2bd 5fb0 853d 197c 2bbe 31aa 8dbc
000001c0: 9566 96bd 3825 c03d a186 eb3d 6835 c23d
000001d0: 2d9a a5bd 5543 893d 4683 36bd 465e 0dbe
000001e0: 07e6 493d e84c f6bd 24d6 39be d80a 513e
000001f0: 780f c9bd b07f 0e3e cdcf a23d ab31 6f3e
00000200: e5af 6dbe 08a1 6ebe fbf6 28be d24c fe3d
00000210: 3e26 d13d 7f2e 06bd cbe7 5bbe 5007 d83d
00000220: 2373 d93b 0cc3 bb3d 30af d7bd f754 933e
00000230: abff a3bd b0ea 833d 5e94 1e3e aa6e 6c3d
00000240: b99b 87bb c104 953e b5b9 20be c7e3 463d
00000250: 0537 06bd 1c28 ad3d d48d 763d 409a 513c
00000260: 87b9 033e 392a 593e e030 1abe c42c 85be
00000270: 8eef d3bd 0fe4 613c 6a9f 85be 208b 823d
00000280: e78e 3fbe 6377 38be 04b2 4c3e b0f0 e43b
00000290: c91e 6abe 7441 643d 1f6b 313e 86ed 35be
000002a0: 70da 3b3e 62ef ed3d 96ac fcbd c68c 443d
000002b0: aa7f 643e c6a5 f7bd d2c3 843c a5b4 b23d
000002c0: d388 7c3e 48fc 47be 734d b83b 7463 8a3d
000002d0: 379f fd3d cb90 dcbd f53b f53c f11b b33b
000002e0: 4ccf ad3e 88ef f3bb 96c9 ea3c 3c37 563e
000002f0: de3d 9dbd c473 4bbd 5c89 f53c 552d 29be
00000300: 7e9c 80bd 785d a53c 193b 593d 9408 68bb
00000310: 30f4 83bd aa7c 17be aeb1 8d3e b771 963d
00000320: 7119 0e3d 4285 f73d 04ce 3dbe b8b7 75bd
00000330: f52d 50be 2457 303d 8bed 85bd 1713 a2bc
00000340: 9def f73d 6b27 ff3d 9527 c4bc cffa 683d
00000350: 9793 87be da2c 873e 1b5c e13c a123 f5bd
00000360: 2d5a 88be 85f9 a4bd 2f06 303e ce8c 97bd
00000370: f2b2 0a3d 5400 ebbd 1f58 8dbe 4261 793e
00000380: a79b 9a3d 8fac ecbc 397f 623e 8408 043d
00000390: be0c 383e a31a 11bd 42d7 c13d 4353 bcbe
000003a0: 3017 283e 254e 8f3e babd c7bd 528a 6b3d
000003b0: 418d 2cbe 8df1 a1be 9f11 5ebd f01a c0bd
000003c0: 45b2 4f3c e288 5e3e 4ff1 4dbe 3b36 9cbd
000003d0: 3faa adbc ad9f 3dbe 86d0 04be d3bb df3d
000003e0: af50 4b3c 5e6b ac3d a907 2dbe 71ac 323e
000003f0: 90d5 96bb fac0 12be 4129 c13d b374 8dbd

bias f4 [10]
0.032612532 -0.097712114 -0.005307929 0.07950836 0.0561295 -0.113925956 0.083641194 -0.14299981
0.17325896 0.06237761
00000000: b894 053d 4a1d c8bd 23ee adbb 47d5 a23d
00000010: 0ce8 653d 0352 e9bd 134c ab3d 8b6e 12be
00000020: cc6a 313e aa7f 7f3d
